Resources/NNModels/kinect_model.onnx (onnx, 869555 bytes, 4 tensors)

StatefulPartitionedCall/sequential_32/dense_76/MatMul/ReadVariableOp:0 f4 [256, 840]
000000 8b 21 9b bc d5 67 75 3d 63 2b 42 bd 00 9f 1e bd
       -0.018936893 0.059913475 -0.047404658 -0.038725853
000010 33 bf a8 bb 88 31 32 bd 62 10 9b 3d 3f ce 65 3d
       -0.005149746 -0.043504268 0.07571484 0.056104895
000020 32 e9 5c bd 1f bc f4 bb 97 5c 57 bd 00 75 2d bd
       -0.05393333 -0.007468715 -0.052578535 -0.042347908
000030 a0 51 0c bd 6f f2 02 bc dc 19 69 bb fe 06 5d 3d
       -0.03425753 -0.007992371 -0.0035568392 0.053961746
000040 ac 95 bd bc 32 6f 1f bc 64 56 56 bd 6f f8 66 bd
       -0.023142658 -0.009731101 -0.052328482 -0.05638927
000050 4b 07 e0 bc db ad 03 bd d9 d6 3f 3c 08 6e 91 3c
       -0.027347228 -0.032148223 0.0117089385 0.017752662
000060 b2 0b 55 bc 6e b9 fd bc b3 3a 05 bc fd 4f 37 3d
       -0.013003277 -0.030972209 -0.008131671 0.044754017
000070 20 78 57 bd 76 86 ad bc e5 a6 87 bd d3 3a cf bc
       -0.052604795 -0.02118228 -0.066236295 -0.025296604
000080 ec 48 b9 3c 30 05 a2 3b 4c c6 22 3c 45 8e 80 bd
       0.02261778 0.004944466 0.009934973 -0.06277136
000090 ad 75 69 bd 27 37 87 bd 74 04 76 3c 37 4e bc 3c
       -0.05699699 -0.06602316 0.01501571 0.022986514
0000a0 75 ce 03 bd 7a 81 c4 3c 80 3e 40 3d 46 c7 83 3d
       -0.032179315 0.02398752 0.046934605 0.06434493
0000b0 5a 43 45 3d 6c e8 64 bd 75 cf 09 3c 8e 4f 98 bb
       0.048159935 -0.055885717 0.008411278 -0.0046481555
0000c0 14 01 25 bd b8 5c b9 bc fe 6c 62 3d 2f b8 36 3d
       -0.04028423 -0.02262722 0.055279724 0.044609245
0000d0 91 f5 8b 3d 40 08 8e 3d 4f b4 84 bd 33 cd 5f bd
       0.068339474 0.06935167 -0.06479704 -0.054639053
0000e0 b6 43 2b 3d 54 d0 0f 3d 53 0d 58 3b 58 c3 64 bd
       0.04181262 0.035110787 0.0032966926 -0.055850357
0000f0 7e 6c 81 bd 35 7b 17 bd c2 cf 44 3d 2f cf ab 3c
       -0.06319521 -0.036982734 0.048049696 0.020972816
000100 5b 74 2c 3d e7 f8 87 bd 74 12 a3 3b f2 fb 0d 3d
       0.042103153 -0.06639271 0.004976565 0.034664102
000110 81 86 82 bd 23 0f 4b bd fa 6b 58 3d f8 95 37 3d
       -0.06373311 -0.049574982 0.05283735 0.044820756
000120 09 5b 84 3c 17 a5 8b 3d 57 10 8d 3d 65 4f 55 bb
       0.01615669 0.06818598 0.06887882 -0.0032548544
000130 d4 88 54 3d f8 bc 6d bc f4 c8 ee bc e6 ad 56 bd
       0.051888302 -0.014510386 -0.029148556 -0.052411936
000140 8a 65 82 bc 2b a2 02 3d e1 d1 79 bb ab 74 a0 3d
       -0.015917558 0.031892937 -0.0038119482 0.07834753
000150 68 2a d0 3b b3 86 2c bd 72 43 50 bc 95 71 a7 3d
       0.0063527115 -0.042120647 -0.012711393 0.08175961
000160 d9 17 a8 bc a6 47 23 ba bf e5 f5 bc 0b 5f 06 3d
       -0.020519184 -0.0006228633 -0.030016778 0.032805484
000170 24 99 b1 3c f0 ab 69 bd 77 d1 25 bc 00 71 b2 bc
       0.021679468 -0.057048738 -0.010120741 -0.021782398
000180 71 ef 61 bb 9d 5a 8b 3d 45 6f 08 bd 1b 91 8c 3d
       -0.0034474994 0.068043925 -0.03330924 0.06863614
000190 f1 b3 93 bd 6b 21 1d bc 13 59 86 bd 2e 15 a5 3d
       -0.072120555 -0.009590487 -0.06559958 0.0806068
0001a0 06 97 06 3d 4e 39 89 3c cb d5 01 bd 9d b9 5f 3d
       0.03285887 0.016750958 -0.03169803 0.054620374
0001b0 58 da 1b bd 35 cb 89 bd 96 cb 5e 3c 2b e3 c5 bc
       -0.038050026 -0.06728212 0.013598343 -0.024156174
0001c0 fe 79 5b bd e8 27 a1 3b 60 7c 1f 3d 46 69 38 3d
       -0.053583138 0.0049180873 0.038936973 0.04502227
0001d0 36 32 61 bd e2 aa f2 3b 9d c0 9e 3c 43 7c 84 3d
       -0.054979526 0.0074056247 0.019378955 0.064690135
0001e0 75 89 8f bd b5 de e2 bb 58 5b 8b 3d 3f a8 77 bd
       -0.0700864 -0.0069235214 0.06804532 -0.060463186
0001f0 b6 8e 36 bd a4 cd f6 3c 09 f4 27 3d c8 60 4c bd
       -0.044569694 0.030127354 0.041004214 -0.049896985
000200 56 3e 6b bc ad 9e 50 3d bb 1f 30 bd bb 8b e3 39
       -0.014358124 0.050932575 -0.04299901 0.0004340092
000210 0a b7 6c 3c 74 c9 9c bc d8 3e 71 3c 0f 53 9f 3a
       0.014447937 -0.01913903 0.014724456 0.0012155491
000220 a2 f3 54 bd ce db c9 3c 2b f5 0a bd fb d8 59 bd
       -0.05199016 0.024640944 -0.033925217 -0.053185444
000230 a6 c3 56 3d 56 85 ea 3c 23 21 f5 3c e4 ee 3a 3b
       0.05243268 0.028628033 0.029923027 0.0028523738
000240 44 47 88 3d 06 b4 27 3d 85 b5 50 bd ba e1 c0 bc
       0.06654218 0.040943168 -0.05095436 -0.023545135
000250 4e c8 51 3a 20 95 be 3c 2c 70 06 3d 9c fb ad 3c
       0.0008002565 0.023264468 0.03282182 0.02123814
000260 b2 81 75 3d 12 d7 e6 3b 20 a7 3b bd 1a 03 02 bd
       0.05993814 0.0070446813 -0.04581368 -0.03174124
000270 73 e0 21 bd f3 df 86 bd 97 c4 71 bd ba 63 0e 3d
       -0.039520692 -0.06585684 -0.059025373 0.034763075
000280 e6 cb 71 bc be c0 99 3b b0 56 ed 3c 8c 33 02 3d
       -0.014758086 0.004692166 0.028972 0.03178744
000290 2b 69 2c bd 5c e1 17 3d c2 3f 87 bd c2 70 16 3d
       -0.042092483 0.037080154 -0.06603958 0.036728628
0002a0 60 93 0f bc c7 14 03 bd c2 b7 b0 bb 5d 5f 12 bc
       -0.008763164 -0.032002237 -0.0053929994 -0.008933869
0002b0 2a 9b 79 bc 4a 75 47 bd 21 18 6c bd a8 b5 0a 3c
       -0.015234748 -0.04869584 -0.0576402 0.008466162
0002c0 d4 45 0c bc 9f bc 96 bc ef e9 8f 3d 60 69 65 bd
       -0.00856157 -0.018400488 0.07027041 -0.056008697
0002d0 15 d0 52 3d 02 ca 95 bd e4 46 6e 3d d1 b0 07 3b
       0.051467974 -0.073139206 0.058173075 0.0020704756
0002e0 1a 68 53 bc be b6 77 bd 49 98 4d bd 58 fa 67 3d
       -0.012903238 -0.06047701 -0.05019406 0.05663523
0002f0 3b fe 99 3c 90 56 34 3d 58 ac 4e bd 1a fc 81 3d
       0.018797984 0.044027865 -0.05045733 0.06346913
000300 18 c9 34 bc dc a9 88 bd c1 d2 31 bb 78 df ac bc
       -0.011034273 -0.06673023 -0.0027133676 -0.021102652
000310 dd d6 cb ba bf 8a 65 bd 97 90 77 bd f5 89 f0 bc
       -0.0015551705 -0.05604052 -0.060440626 -0.029362658
000320 90 79 4e 3d e6 07 5b bc 09 d0 24 bd 01 7b 90 3d
       0.0504089 -0.013368582 -0.04023746 0.07054711
000330 2d 8b 8f 3d 9d 07 2b bd 7d 65 0e bd 1e bc 17 bc
       0.070089675 -0.041755307 -0.034764756 -0.009261159
000340 50 21 cd bc 8b 5d f8 3c 1e 58 22 3d 1f e5 78 3d
       -0.025040299 0.030318042 0.039634816 0.060765382
000350 bf 59 fa 3c b2 c3 82 3d c1 1b 46 3d f7 57 6f 3c
       0.030560372 0.06384982 0.048366312 0.014608375
000360 29 d2 2c bd d5 54 c1 3c 01 50 80 bd ee 1c 69 bd
       -0.04219261 0.023600021 -0.062652595 -0.056912355
000370 d6 3b 7a 3c 72 09 46 3d 2f 01 0b bd cb 46 ca 3c
       0.015273055 0.04834885 -0.033936676 0.02469196
000380 85 96 65 bd 47 59 4b 3d 48 0f 7c 3d 10 e8 08 3d
       -0.05605175 0.04964569 0.06153801 0.033424437
000390 c8 ad 91 bc 38 fd 61 3d 2e a3 ee bc 5a f3 83 3d
       -0.01778306 0.05517313 -0.029130545 0.064429
0003a0 3c e7 d7 bc 99 de 7e bd ae 17 3e 3d bb 0b f6 bc
       -0.026355378 -0.062224004 0.0464093 -0.03003489
0003b0 03 50 0c 3d 42 8c 91 3d 89 c8 20 3d 9c 31 c8 3c
       0.034255993 0.0710683 0.039253745 0.024437718
0003c0 29 1b 1f bc 53 37 2e bd 68 34 cb bb c9 8f e3 bc
       -0.009711065 -0.04253323 -0.0062013157 -0.027778523
0003d0 d1 57 34 3d d8 7f e4 ba 2f 2e 18 bc 28 ca 54 bd
       0.04402906 -0.001743312 -0.009288355 -0.051950604
0003e0 eb a9 8d 3c 4d 96 3c 3d 46 2b 75 bd 27 74 1e bc
       0.017292937 0.046041775 -0.059855722 -0.009671248
0003f0 cc e9 10 3d 04 9d 83 3d 99 5e ad 3c 6e 67 23 bd
       0.035379216 0.06426433 0.021163272 -0.03989356

StatefulPartitionedCall/sequential_32/dense_76/BiasAdd/ReadVariableOp:0 f4 [840]
000000 2d 0a 43 bb 16 f0 01 3c 7e 06 72 bb cb b8 c0 39
       -0.0029760704 0.007930776 -0.003693014 0.00036758775
000010 3d bf b7 3a f9 12 92 3b ce 34 b2 ba 77 03 3d 3c
       0.0014018785 0.004457828 -0.0013596059 0.011536471
000020 44 cb c5 3a 04 98 c1 ba b0 45 6b ba 66 59 0a 3c
       0.0015090485 -0.0014770036 -0.0008974923 0.008444166
000030 4b 48 19 3a 28 4a c6 ba 67 7d b1 3b 9a fc 04 3c
       0.00058472593 -0.0015128301 0.0054165605 0.0081168655
000040 68 52 8c ba ca 69 e5 39 cf 9e f4 39 4c 67 11 3c
       -0.0010705711 0.00043757103 0.00046657628 0.008874726
000050 79 47 47 b9 9f 1f 60 3b 70 1f 2d ba aa 40 c4 3b
       -0.00019004745 0.0034198535 -0.0006604111 0.005989154
000060 f0 69 86 bb 4c 36 cf ba 3e 9f 8a 39 aa b5 37 3c
       -0.004101984 -0.0015809028 0.00026440056 0.011212746
000070 2c 27 42 ba 87 0d a7 ba 24 74 ec ba 22 28 72 3b
       -0.000740635 -0.001274512 -0.0018039984 0.003695019
000080 8d d8 f6 ba b0 16 02 3a 85 ab d0 ba 3a c4 10 3c
       -0.0018832848 0.0004962487 -0.0015920257 0.008835847
000090 25 96 4a 3b db 37 12 3b 84 29 40 bb 4a 3e db 3b
       0.0030912247 0.0022311124 -0.002932162 0.006690775
0000a0 a5 ef 84 38 02 bf ab 3a da 80 0c 3b d0 e4 b0 3b
       6.338888e-05 0.0013103189 0.0021439106 0.0053983703
0000b0 75 f3 f9 ba af 15 8b b9 19 30 a8 39 01 58 27 3c
       -0.0019069748 -0.00026528302 0.00032079293 0.010213853
0000c0 f5 af e4 3a aa 26 e8 3a 4f 7f 6b ba c9 d1 a9 3b
       0.0017447459 0.0017711718 -0.0008983509 0.005182479
0000d0 c4 a4 84 3b 2b d1 80 ba 26 62 85 3a 7c 56 39 3b
       0.004047962 -0.0009827962 0.0010176345 0.0028280308
0000e0 d9 9c 50 3a eb e7 7e b9 57 f3 d0 ba 31 46 4a 3c
       0.00079579424 -0.00024309724 -0.0015941662 0.0123458365
0000f0 c5 a3 05 39 da db 67 b9 05 bc 6a 3b 51 2e dd 3b
       0.00012744877 -0.00022111778 0.0035817635 0.006749906
000100 8c a4 0b bb 99 e6 26 3b dc 5d f6 38 db c0 0e 3c
       -0.0021307794 0.0025467037 0.00011747677 0.0087129725
000110 d2 98 da b9 b7 7a 28 ba a6 c9 27 3a ea bf e3 3b
       -0.0004169406 -0.00064269773 0.00064005924 0.006950368
000120 f0 5d a2 ba c0 4d c0 ba f5 0d 07 ba b1 74 34 3c
       -0.0012387615 -0.0014671609 -0.0005151921 0.0110141495
000130 9e 03 26 3a 2c 7a d9 3a 74 dd 6a 3b 3c 00 1f 3b
       0.00063329365 0.0016592196 0.0035837563 0.0024261614
000140 46 ed 90 ba 29 5b 1a 3c a1 da bf ba 7c d0 c0 3b
       -0.0011057041 0.009421148 -0.00146373 0.0058842283
000150 b9 00 e3 3a c4 2f 85 39 a4 7f a7 39 b1 d2 1d 3c
       0.0017318941 0.00025403325 0.00031947822 0.009632752
000160 17 7d 20 bb 1a 17 c8 39 2c c1 10 3b 53 d1 10 3c
       -0.0024488622 0.00038164185 0.0022087796 0.008838969
000170 94 aa a2 bb de f0 c0 ba c5 4c 5f ba 8e 40 97 3b
       -0.004964182 -0.0014720222 -0.00085182145 0.00461585
000180 6e 8a a8 39 94 40 ae 39 b6 6e eb 39 f4 95 17 3b
       0.00032146595 0.0003323598 0.0004490518 0.002313015
000190 dc 87 f2 ba ea a8 16 3a a9 d4 76 ba bf b5 1c 3c
       -0.0018503624 0.0005747216 -0.0009415844 0.009564816
0001a0 8e de 96 3a 54 2e fb 39 57 d2 f4 ba 1d 8e 02 3c
       0.0011510418 0.00047908968 -0.0018678409 0.007968453
0001b0 02 09 63 3b 6f b2 0b ba db a4 90 3a 1c 1e d3 3b
       0.003464282 -0.0005329018 0.0011035459 0.0064427983
0001c0 c3 d8 1e bb ec 6c 44 bb 57 cd 7d 3b 5b 5f c5 3b
       -0.0024238087 -0.002997215 0.0038727128 0.00602333
0001d0 1d c6 f9 ba 27 30 16 3a 41 0f 63 3b ed bc 0d 3c
       -0.0019056235 0.0005729221 0.0034646543 0.008651
0001e0 61 5c a0 ba 1f 44 92 3b a3 09 da 3a 48 ad 5f 3c
       -0.0012234562 0.004463687 0.0016634952 0.013652153
0001f0 0a 7d 5c 3a 24 b6 ac bb 8c 88 59 3b 57 32 1d 3c
       0.0008410966 -0.0052707363 0.003319296 0.0095945215
000200 80 63 8e ba be dc 9b 39 f2 9e e5 ba e8 e4 ce 3b
       -0.0010863394 0.0002972837 -0.0017518683 0.006313909
000210 ad 7e af 38 f3 f2 d1 3a 4c 52 7f bb 13 9e 13 3c
       8.3682455e-05 0.0016017839 -0.0038958965 0.009009856
000220 53 46 17 bb d5 1b 4e bb 29 1a ff ba 73 35 70 3b
       -0.0023082688 -0.0031449695 -0.0019462752 0.0036652952
000230 2d f5 d8 ba 57 9d e2 bb 50 89 1a ba 5d b8 37 3c
       -0.001655256 -0.006915729 -0.0005895095 0.011213389
000240 51 0b 91 3a 12 bc a2 ba 6c 7e 70 ba 27 95 82 3b
       0.0011065995 -0.0012415668 -0.0009174112 0.0039850655
000250 59 e0 68 3b 89 b6 ce b7 bf 2a cd 3a a6 81 07 3c
       0.0035534112 -2.4642113e-05 0.0015652998 0.008270657
000260 5a 04 51 bb 21 a5 2d bb 2f 55 86 3a 69 bc 2b 3c
       -0.0031893463 -0.002649613 0.0010248775 0.010481932
000270 e4 57 1e 3b 1d 4d 16 3b a2 5a 9c 3b d2 bf 9c 3b
       0.0024161274 0.0022934147 0.0047715465 0.004783609
000280 e0 4f 10 bb 79 90 26 3b d1 a6 b8 39 f3 c2 4b 3c
       -0.0022020265 0.0025415702 0.00035219503 0.012436616
000290 b2 53 ce b9 62 a6 13 bb 50 64 62 3b 9b 3f 0d 3c
       -0.0003935374 -0.0022529592 0.0034544654 0.008621122
0002a0 f6 64 7a 3b a5 11 20 ba 04 a9 59 bb 50 a7 27 3c
       0.003820715 -0.0006106145 -0.0033212313 0.0102327615
0002b0 e2 68 cc ba d1 ab dc b9 4b 5b 0b ba 38 15 75 3b
       -0.0015595222 -0.00042089683 -0.0005316033 0.003739668
0002c0 0b 32 a8 ba 7f 6f 66 3b 21 46 18 b9 c0 3a 05 3c
       -0.0012832297 0.0035161672 -0.00014521975 0.008131683
0002d0 0d 9c 36 bb 5c 1d 23 bb 2e 7a 23 3b 74 53 48 3b
       -0.002786401 -0.0024889326 0.002494465 0.003056732
0002e0 d4 57 30 ba b7 cc 27 bb ef 59 a0 ba 9a 8d 79 3b
       -0.00067269546 -0.0025604197 -0.0012233834 0.0038078786
0002f0 00 16 02 3b d4 39 26 3b 50 03 6f ba 83 e1 26 3c
       0.0019849539 0.0025364058 -0.000911762 0.010185602
000300 95 78 8b 3b 24 6b bc ba 93 8e 92 bb 08 1e 01 3c
       0.004256318 -0.0014375192 -0.0044725626 0.007880695
000310 75 00 49 bb 19 e0 f9 b9 14 8f 76 3b d2 27 d6 3b
       -0.0030670438 -0.00047659947 0.0037621902 0.0065355087
000320 1c ca 28 ba c0 b1 d9 3a 1b c5 04 bb 80 6d 66 3b
       -0.0006438808 0.001660876 -0.0020259086 0.0035160482
000330 e4 df ce 3a 0f 23 1a ba d7 45 2f 3b 1c 6f e9 3b
       0.0015783277 -0.0005879858 0.0026744509 0.007123841
000340 d1 94 90 3b 5f 47 48 bb 1e 34 71 3a 65 5e 07 3c
       0.0044122715 -0.0030560119 0.00092011865 0.0082622515
000350 e1 e1 d5 3a ce 7c 3d bb 10 c2 2b ba c9 50 24 3c
       0.0016317928 -0.00289135 -0.000655205 0.010029026
000360 4c 34 48 3b f4 e5 26 bb 48 f5 46 ba 06 b7 74 3c
       0.003054875 -0.0025466653 -0.00075896503 0.014936214
000370 86 31 ed ba a9 f7 04 3b 53 97 23 3b e8 0a 28 3c
       -0.0018096424 0.0020289219 0.0024962022 0.0102565065
000380 32 9f 82 bb ae a5 74 bb d3 d0 19 bb 79 93 9e 3b
       -0.0039862627 -0.0037330198 -0.0023470416 0.0048393575
000390 0d c3 61 bb 7e cb 39 ba fd b9 68 bb 9c ea f8 3b
       -0.0034448535 -0.00070875126 -0.0035511248 0.007596327
0003a0 de a3 ab 3b 08 c0 0e bb 11 8e 42 ba 98 87 02 3c
       0.0052380404 -0.002178194 -0.0007421682 0.007966898
0003b0 b2 bf 1b bb cc 60 fc ba 26 73 a5 bb 45 0d 10 3c
       -0.0023765382 -0.0019254922 -0.005049127 0.008792226
0003c0 95 ce 85 bb ac 4e 52 bb 02 23 03 ba 19 81 8f 3b
       -0.0040834644 -0.003209035 -0.000500247 0.0043794033
0003d0 46 f0 0e bb b8 88 34 bb cc af 6a ba b0 ba a5 3b
       -0.0021810695 -0.002754731 -0.00089525874 0.0050576553
0003e0 1e a7 b4 ba 89 2e 13 ba fb 2b c7 b9 64 57 d1 3b
       -0.0013782715 -0.0005614539 -0.00037989006 0.0063885916
0003f0 9a fe ec 39 8b af 70 3a ae 2c 9b b7 5d cf eb 3b
       0.0004520312 0.00091814314 -1.8498245e-05 0.0071963505

StatefulPartitionedCall/sequential_32/dense_75/MatMul/ReadVariableOp:0 f4 [3, 256]
000000 dc d3 9e bd a6 b9 ea 3c f5 2d 44 bc f0 92 67 bd
       -0.07755253 0.028652977 -0.011973848 -0.056536615
000010 88 5e f3 3d aa ff 8d 3d b3 63 69 3c 53 90 8a bd
       0.11883265 0.0693353 0.014244962 -0.06765809
000020 6a 74 d2 3d 9b 92 89 bd 5b a9 75 3c 7c b5 a1 3c
       0.102761105 -0.06717416 0.014993991 0.019739859
000030 d4 a4 f3 bc 42 55 b7 3d 28 f6 01 be e4 7a ea bb
       -0.029741682 0.089518085 -0.12691557 -0.007155763
000040 02 5e 20 bd 74 39 0f be 13 bb b3 3d db f3 ad 3d
       -0.039152153 -0.1398676 0.08775916 0.08493777
000050 f5 7b 13 3d d5 ca 1f be 3f f7 d1 3d 87 83 cb bc
       0.036006887 -0.15604718 0.102522366 -0.02484299
000060 8b 9c 1a 3d 81 73 f0 3d 75 fc d0 bd 5f f7 8e bd
       0.037746947 0.117407806 -0.10204402 -0.06980776
000070 e3 53 ab 3d d5 ec 93 3d e9 00 e0 3d f4 ca ca bd
       0.083656095 0.072229065 0.109376736 -0.099019915
000080 57 1d 61 bc 9a 44 18 bd 84 7b a1 3d ce fe 41 3c
       -0.013739905 -0.0371748 0.07884887 0.011840535
000090 25 0a 97 bd 70 7b 89 3d 2b 8c cc 3c a8 09 88 3b
       -0.07374982 0.06712997 0.024969181 0.0041515417
0000a0 14 6e f0 3c 66 2c 96 bd 7b 58 ec 3b c4 d0 a6 bd
       0.029349364 -0.07332687 0.007212696 -0.08145288
0000b0 95 da a5 3b 66 c5 65 bd e7 e7 c9 bc 6f 52 b4 bd
       0.0050614574 -0.056096457 -0.024646712 -0.088047855
0000c0 a2 70 4c 3c 47 99 14 bc 74 58 ae 3c 6f b6 ac 3d
       0.012478026 -0.009069747 0.021282412 0.08433234
0000d0 64 5d 06 be c0 2b 84 bb 2c dd 02 bd 41 52 e0 3d
       -0.13121563 -0.0040335357 -0.031949207 0.10953189
0000e0 5b 08 d8 bd 70 c7 b4 bc 90 4d e3 3c 76 ac 92 bd
       -0.10548469 -0.022067755 0.027746946 -0.071618006
0000f0 e9 70 03 be 04 c9 a6 bd 8e 1c 8d 3c f2 40 bf bd
       -0.1283604 -0.081438094 0.01722553 -0.09338559
000100 88 cc b8 bd 67 a5 b7 bd 66 08 8f bd 3f 45 50 bc
       -0.09023386 -0.08967095 -0.06984024 -0.012711822
000110 85 2b 00 be 57 ec dd bd cb a6 ea 3d 37 68 e7 bd
       -0.12516601 -0.10836094 0.114575945 -0.11299174
000120 a1 57 44 3d 05 ba be 3d 62 00 bf bd 9f eb 9a bc
       0.047935132 0.09312824 -0.09326245 -0.018911181
000130 f9 5b 02 bd ec ef e3 bd 66 23 bb bd 75 94 d8 3d
       -0.031825993 -0.11129746 -0.09137611 0.10575191
000140 ac a0 b0 bd c6 c2 d7 ba b1 39 c8 bd ef d4 0d be
       -0.08624396 -0.0016461245 -0.09776629 -0.13850759
000150 47 b0 c1 3b d6 ca 87 bd d2 3f 00 be f2 fc e3 3b
       0.0059109065 -0.06630485 -0.12524346 0.0069576437
000160 60 98 06 3e 18 a1 14 3c 1f a2 46 bd c2 27 76 3d
       0.13144064 0.009071611 -0.048494454 0.06009651
000170 a1 cd cd 3d 64 43 83 bd 29 1e d6 bd 85 22 f3 bd
       0.10048986 -0.06409338 -0.10454971 -0.118718185
000180 b5 67 72 3d 35 9b a5 3d 78 a9 b5 3c a5 2c 74 3d
       0.059180934 0.08086244 0.022175536 0.05961289
000190 25 a3 f6 3c f4 cd ca bd 5a 40 70 bd 2d fc df 3c
       0.03010709 -0.09902564 -0.05865512 0.027341926
0001a0 4e 0e b7 3c 8d 55 81 3d b3 24 c3 3d 2b 2f 3f 3c
       0.022345688 0.06315146 0.09528484 0.011668961
0001b0 02 63 0b be 57 3e 86 bd 13 1e c1 3c c5 f6 7f 3d
       -0.13611987 -0.06554859 0.02357391 0.062491197
0001c0 56 bc 21 bd 4d d3 e2 3d ec ed 40 3d 73 5b 1f 3d
       -0.03948625 0.11075459 0.0471019 0.038905572
0001d0 3f e5 39 bd d7 b1 06 bc c1 96 1f 3d 2f 83 b1 bd
       -0.04538464 -0.008221111 0.03896213 -0.086675994
0001e0 e6 e6 e5 3c 57 50 91 bc 52 70 03 3d 32 35 13 bd
       0.028064203 -0.017738504 0.03208954 -0.035939403
0001f0 41 7b a3 3d c8 c4 89 bc 4a 79 e1 bd f4 1a b6 3d
       0.07982493 -0.016817465 -0.11009462 0.0889186
000200 5f fa e0 bd 9b 18 8b bd c6 bb c4 bd 8e 3d 9f bc
       -0.109852545 -0.067918025 -0.096061274 -0.019438531
000210 be 8d 0f 3d 1a 77 b0 3d 0e 36 ae bd 6b 75 eb 3a
       0.035047285 0.08616467 -0.08506404 0.001796407
000220 45 13 fe 3b 63 71 8b bc 60 a8 05 3c ed 87 2c bd
       0.007753762 -0.01702184 0.0081578195 -0.042121816
000230 19 d9 9e bd 3d ed 96 bd 57 e2 b0 3c ff d8 7d ba
       -0.07756252 -0.07369468 0.021592302 -0.0009683519
000240 db 70 c1 bd 88 c1 7f bd 10 de a1 3d 37 cf 8f 3c
       -0.094453536 -0.062440425 0.07903683 0.017554862
000250 20 3c 48 3d bc 48 9e 3c c9 c7 0b 3d 29 e2 91 bc
       0.048885465 0.019321792 0.034126077 -0.017808037
000260 cf 2a 44 3b 70 93 b9 3d 16 ac 91 3d 01 bb 98 3b
       0.0029932742 0.090613246 0.07112901 0.0046609645
000270 0e aa ea 3d 5e c1 ad bc 83 89 6a bd 6b 79 77 3d
       0.114582166 -0.021210369 -0.057260048 0.060418528
000280 a3 d9 74 3d 7d 72 43 bd 0b fd 42 bc 8d 88 a5 3d
       0.059777867 -0.047716606 -0.01190115 0.080826856
000290 2c 7b 9d 3d 1b d5 c8 bd dc b1 50 3c 91 2f f8 bc
       0.07689509 -0.09806272 0.0127377175 -0.030296119
0002a0 71 86 9d 3d 68 65 cc bd 6a 04 5e bd 69 12 b7 bd
       0.07691658 -0.09980279 -0.05420343 -0.08939058
0002b0 7e 1d 81 bd 9e b5 2e 3d 2e 19 86 bc 12 64 cb 3c
       -0.06304453 0.042653672 -0.016369428 0.02482799
0002c0 23 88 97 3d 59 35 e9 bc dc 63 07 be 62 fb 87 3d
       0.07399013 -0.028467821 -0.13221687 0.06639744
0002d0 ec 18 82 bd b8 cf b9 3d 9b 1b 82 3d 42 eb 5e bd
       -0.0635241 0.09072822 0.063529216 -0.054423578
0002e0 28 66 8a bd 46 8e cd 3d ec f3 ab bd 1c 03 a6 bd
       -0.06757766 0.10036902 -0.08396134 -0.08106062
0002f0 e0 3f 66 bd 5a b8 8f 3d 57 97 a6 3d 88 61 d8 bd
       -0.05621326 0.07017584 0.081343345 -0.105654776
000300 53 e8 cc bd f5 9d df bd d9 d4 12 3d d9 a7 80 3d
       -0.1000525 -0.109188 0.03584752 0.062820144
000310 b3 92 43 bd 40 d6 32 bd 3a c1 b9 bb dd d2 d1 3d
       -0.047747325 -0.043661356 -0.0056687864 0.10245297
000320 15 b5 1b 3b 0e a9 54 bd 25 49 83 bd 41 a6 91 bc
       0.0023759056 -0.051919036 -0.064104356 -0.017779471
000330 7d 41 b7 3d 1d 93 a8 bd d3 ff c0 bd 51 d0 c6 3d
       0.08948038 -0.08231185 -0.094237946 0.09707702
000340 67 34 9e 3c 93 ad bb 3d 74 f9 87 3d fe 1b db bd
       0.019312097 0.09163966 0.06639376 -0.106986985
000350 99 51 a2 3d f5 c9 f9 bc be 69 f0 39 bb cb 82 3d
       0.0792572 -0.030491808 0.0004585515 0.06386515
000360 14 60 d7 3d 9c d8 a1 bd 05 2f 88 3d a8 8a 95 3d
       0.10516372 -0.07902643 0.06649593 0.07301837
000370 8d 89 45 3d e3 6e 48 3d 5c 96 99 3d 29 f3 cf 3b
       0.04822688 0.048933875 0.07499382 0.0063461256
000380 3c 9b d5 3d 91 48 da 3d d7 a2 83 bd f8 6f 93 bd
       0.10429999 0.10658372 -0.064275436 -0.07199091
000390 65 66 b5 3c cc e4 a2 bc 66 f9 9c 3d 4c 57 c7 bd
       0.022143552 -0.01988449 0.076647565 -0.097334474
0003a0 4d 36 de 3d b2 29 5a bc 7e b0 db 3b 1c fd 69 3c
       0.10850201 -0.013315605 0.006704389 0.014281537
0003b0 0e 38 2d 3c a0 f2 c3 bc 1c dc 36 bd 1f 07 86 3d
       0.0105724465 -0.023919404 -0.044643506 0.06544327
0003c0 9e fb 58 3d b4 34 7f 3d 34 3a a6 bd ba 71 22 3c
       0.052974336 0.06230612 -0.0811657 0.00991481
0003d0 aa fb e5 3c 55 71 8a 3c f2 81 88 3d 9a e6 ce 3b
       0.028074104 0.016899744 0.0666541 0.006314111
0003e0 15 82 a0 3a 2c 74 2a 3d 04 40 32 3d e9 23 dd bb
       0.0012245799 0.041614696 0.04351808 -0.0067486656
0003f0 c4 02 1e bd a6 df de bd cd 09 6f 3d 21 89 10 3b
       -0.038576856 -0.10882501 0.058358956 0.0022054391

StatefulPartitionedCall/sequential_32/dense_75/BiasAdd/ReadVariableOp:0 f4 [256]
000000 93 9f dd bc b7 46 8f bc 52 99 a7 bc 24 07 f6 ba
       -0.02705363 -0.017489774 -0.020458851 -0.0018770439
000010 b4 a3 e8 bb c5 46 c8 bc d5 97 e1 bc 31 d6 aa bc
       -0.007099593 -0.024447808 -0.02753822 -0.020854088
000020 1b ee c4 bc bd 95 df bc 1e 8f 1d bb 97 7b 86 bc
       -0.024039319 -0.02729308 -0.0024041603 -0.016416354
000030 4d bb bb bc 75 64 69 bc f3 a0 76 ba 17 13 4b 3a
       -0.02291646 -0.014245142 -0.00094081386 0.000774668
000040 b4 39 d1 bc 7c 92 a7 bc d3 98 30 ba 4a b6 a2 bc
       -0.02554021 -0.020455591 -0.000673664 -0.019862313
000050 5f 98 ca bc 95 d1 a8 bc 47 36 fb bb 3c 3d f1 bc
       -0.02473086 -0.020607749 -0.0076663825 -0.029448144
000060 8f c4 8e bc 4a ad 44 ba 2d 52 0b ba 43 3a 09 bd
       -0.01742771 -0.0007502629 -0.00053146743 -0.03350283
000070 8c a4 01 bc 31 dc 5f bc 76 36 a4 bc 14 d2 fa bb
       -0.007912766 -0.013663338 -0.0200455 -0.007654438
000080 9c 81 cc bc f5 e5 5f bc 62 e3 64 bc 6f 7a c0 bc
       -0.024964146 -0.013665666 -0.013970228 -0.02349588
000090 f0 6b aa bc 35 4f d8 bb de 78 3d bc 25 00 c8 ba
       -0.020803422 -0.006601239 -0.0115644615 -0.0015258832
0000a0 24 97 a3 bc b8 8e a9 bc 5c ae a9 bc 98 9d 80 3a
       -0.01996953 -0.020697936 -0.020713024 0.0009812592
0000b0 24 6d 96 bc 36 15 a8 bc b9 6d a6 bb 1b 7c ce bc
       -0.01836259 -0.020517927 -0.005078998 -0.025205662
0000c0 62 10 bf bc d6 43 e2 bc 53 53 83 bc d6 82 b8 bc
       -0.023323242 -0.027620237 -0.016030943 -0.022523325
0000d0 18 26 a6 bc c8 00 48 bc 8c ce 3e bc 29 a8 97 bb
       -0.020281836 -0.0122072175 -0.011645924 -0.0046282005
0000e0 2e aa b8 bc 74 75 d1 bb 93 00 ac bc 73 77 85 bc
       -0.022542085 -0.0063921753 -0.020996368 -0.01629231
0000f0 d5 c8 ba bc 73 b7 00 bd 09 90 67 bc a2 71 14 bc
       -0.022800842 -0.03142495 -0.014133462 -0.009060295
000100 a3 bc 75 bc 8a 8c aa bc 89 af dd b9 4b b9 84 bc
       -0.014998588 -0.020818967 -0.0004228319 -0.016201636
000110 47 1a d6 ba d1 65 8a bc 4b 33 36 bb c6 0a d3 bc
       -0.0016334736 -0.016894253 -0.002780157 -0.025761973
000120 39 38 6d bc 0e f8 6c bc c6 ef 98 bc 4c d2 a4 bc
       -0.014478737 -0.014463438 -0.01866902 -0.020119809
000130 4f e7 02 bc 6b db dc bc f2 5d ee bc b8 ed bb bc
       -0.007989719 -0.026960095 -0.029097531 -0.022940502
000140 ab 19 c0 bc b4 af d0 bc 13 35 c0 bc d0 18 b9 bc
       -0.02344974 -0.025474407 -0.023462808 -0.02259484
000150 b7 8f 66 bc 31 f6 f5 bb 3c 2a ea bc ba d1 07 bd
       -0.01407235 -0.007506155 -0.028584592 -0.033158995
000160 d7 1f d3 39 4a 3d 83 bb 10 f8 89 bb 76 46 2a bb
       0.0004026878 -0.004005109 -0.0042104796 -0.002598194
000170 d3 76 90 bc 16 57 ba bc 6e 7e d3 bc ce aa d2 bc
       -0.017634785 -0.022746604 -0.025817122 -0.025716212
000180 35 84 c6 bc 41 7f bb bc cd 60 93 bc b4 ad 86 bc
       -0.024232963 -0.022887828 -0.017990494 -0.01644025
000190 ce d5 97 bc 17 2d 74 b9 b6 6f 24 bb 1e e6 c5 bc
       -0.018534567 -0.0002328645 -0.0025091 -0.02415758
0001a0 9d 3d 93 bc 73 51 c0 bb 51 c3 04 bc 75 bf 8e bc
       -0.017973715 -0.0058690845 -0.008103208 -0.017425278
0001b0 4e a2 b3 bc 87 4a 00 bd a2 d9 85 bc b4 c0 40 bc
       -0.021927979 -0.031321075 -0.016339127 -0.011764694
0001c0 5c a0 c5 bc 0a d6 b7 bc d0 9b 3a bb ff bf e6 bc
       -0.024124317 -0.022440929 -0.002847422 -0.028167723
0001d0 66 d7 c8 bc db c3 1f bc ac e1 fc bc 44 b5 9d bc
       -0.024516772 -0.009751285 -0.030869327 -0.019251473
0001e0 ed 70 ff 39 09 b4 40 bc 73 3c c1 bc bb f6 8e bc
       0.00048721526 -0.011761674 -0.023588395 -0.017451635
0001f0 10 d5 db bc 30 23 d5 bc c7 16 04 bc 7d 9c d0 bc
       -0.026834995 -0.026017755 -0.008062071 -0.025465244
000200 ea cd fc bb 60 f0 bb bc af b7 af bc 11 c1 d1 bc
       -0.0077149766 -0.022941768 -0.021449892 -0.025604757
000210 0b 8d 1f bc 23 e0 af bb 50 f8 e6 bb c6 f8 ae bc
       -0.009738217 -0.0053672954 -0.007048644 -0.021358859
000220 42 d4 c5 bc 02 00 ba bc 88 01 bb bc b7 9c bc bc
       -0.024149064 -0.022705082 -0.022827879 -0.023023946
000230 98 74 98 bc 7c bc 0a bc 12 25 5f bc 05 f6 c7 bc
       -0.018610284 -0.00846779 -0.013619678 -0.024409303
000240 16 b5 2e bc 9a a1 b7 bc 46 23 95 bc 86 e5 93 bb
       -0.010663291 -0.022415925 -0.018205296 -0.0045134453
000250 ce ce af bc b4 95 dc bc 6e 4b b8 bc 1f 31 48 bc
       -0.021460917 -0.026926853 -0.022496905 -0.012218743
000260 5c 3a 97 bc 9e e6 6f bc 83 ac b4 bc ab 57 0d bc
       -0.018460445 -0.014642386 -0.022054916 -0.008626859
000270 41 0b 9c 3a 3b b1 a9 bb 67 53 56 bc 80 b3 b6 bc
       0.0011905209 -0.005178598 -0.013081408 -0.02230239
000280 54 85 de bc b1 f9 e1 bc b9 3c 4d bc 74 97 10 bc
       -0.027163185 -0.027584882 -0.012526684 -0.008825172
000290 e5 07 92 bc 4f 0f 99 bc e6 5d fd bb 36 c0 8d bc
       -0.01782603 -0.018684058 -0.007732141 -0.017303567
0002a0 9c 09 5f bc c8 c3 e5 bc f1 27 ec bc 83 9c d0 bc
       -0.013613131 -0.028047457 -0.02882764 -0.025465256
0002b0 e6 71 40 bc 3d e0 6d 3b b9 44 ed bc 0f 67 d0 bc
       -0.0117459055 0.0036296987 -0.028963434 -0.025439767
0002c0 e7 ec c3 bc e9 70 e1 bc ae b6 ad bc 3c 51 a9 bc
       -0.023916675 -0.02751966 -0.021205273 -0.020668618
0002d0 cb 4d 9e bb 43 59 0e 3a 48 a9 de bc 4d 6d 49 bc
       -0.004831051 0.0005430171 -0.027180329 -0.012294126
0002e0 53 24 b7 bc 8e 3e ac bb 36 d5 9f bc 38 94 e2 bb
       -0.022356188 -0.0052564805 -0.019510847 -0.0069146417
0002f0 b9 34 46 bc 6f ca 0d bb f6 b0 bb bc 75 cd e2 bc
       -0.012097531 -0.0021635552 -0.02291153 -0.02768586
000300 a8 67 cf bc 45 a2 83 bc e5 cf 87 bc 7c 56 96 bc
       -0.025317982 -0.016068587 -0.016578624 -0.018351786
000310 17 2a ad bc 22 0e 1c bc fa 53 46 bb 9e 6a b1 bc
       -0.021138234 -0.009524854 -0.0030262456 -0.021657284
000320 90 e8 67 bc d6 a3 c7 bc e2 55 dc bc 49 93 a0 bb
       -0.014154568 -0.024370115 -0.02689642 -0.0049003703
000330 f1 9d 11 ba 32 2a ba bc fe 20 c6 bc 66 06 be bc
       -0.0005554846 -0.022725198 -0.024185654 -0.02319641
000340 8f 63 a1 bc c3 b3 0f bc 99 79 ac bc 7b 56 9d bc
       -0.019700794 -0.008770886 -0.021054076 -0.019206276
000350 b9 43 e8 bb ee 1f af bc fa 06 37 bb 97 f6 c7 bc
       -0.0070881513 -0.02137753 -0.0027927742 -0.024409575
000360 e3 cc 92 bb 41 d6 ff bc 59 b8 e4 ba b0 62 e3 bc
       -0.004479991 -0.031230094 -0.0017449959 -0.027757019
000370 ea 58 15 bc 18 d9 53 bc 54 a0 ea bc fe b5 c1 bc
       -0.009115437 -0.012930177 -0.028640904 -0.023646351
000380 23 58 11 bb 07 b3 84 bb c4 3a eb bc 36 bb a6 bc
       -0.0022177778 -0.004049662 -0.028714545 -0.020352941
000390 74 68 31 bb d8 d1 a8 bc 6e 91 a7 bc 67 f9 b6 bc
       -0.0027070316 -0.020607874 -0.020455088 -0.022335721
0003a0 42 d0 3b bc 40 ae ea bb 46 c3 ed bc 8b 14 28 bc
       -0.011463227 -0.0071618855 -0.029023778 -0.010258804
0003b0 4f 82 b0 bc 80 5f e6 bc fb d7 cb bc 77 f8 a4 bc
       -0.021546511 -0.02812171 -0.024883261 -0.020138009
0003c0 df cd 6f bb 4a f9 c1 bc 2e 34 a4 bc 42 d7 54 bb
       -0.0036591215 -0.02367844 -0.020044412 -0.0032476936
0003d0 d5 9a bc bc 27 44 d1 bc cd 50 02 bc 64 21 e9 bc
       -0.023023048 -0.025545193 -0.007953835 -0.028458305
0003e0 e3 e6 5c bc 06 ae 2c bc 3a 32 c1 bc 20 d8 c6 3a
       -0.013482782 -0.010539537 -0.02358352 0.0015170611
0003f0 47 82 e0 bc 76 77 d4 bc a1 91 6c bc 01 ec 61 bc
       -0.027405871 -0.02593587 -0.0144390175 -0.013789178
