Resources/NNModels/leap_model.onnx (onnx, 67955 bytes, 4 tensors)

StatefulPartitionedCall/sequential_18/dense_48/MatMul/ReadVariableOp:0 f4 [64, 250]
0.020737857 -0.10606601 0.08716441 0.11397983 0.11817819 0.12461067 -0.0028173719 -0.081888966
0.13600847 0.11120557 -0.031368785 -0.09891981 -0.008950908 -0.0042891987 -0.068212405 0.0049320045
0.03945559 0.09270934 -0.068460315 0.07681289 0.1285872 -0.034617946 -0.11958709 -0.079657055
-0.021187775 0.08997432 -0.015493386 -0.15084858 0.115531035 -0.12663525 0.035876215 -0.005823861
0.08612356 0.027859088 0.09948864 -0.1126638 -0.10670597 0.049995594 0.06664163 0.13696332
-0.045917284 0.06614861 -0.0761655 -0.06895742 0.0129458355 0.12699789 0.029066423 0.050451774
-0.026993718 0.04181787 -0.0003364166 0.052526552 -0.07501534 0.0062986296 -0.109511144 0.13073799
0.03959613 0.15177457 0.11521282 0.06998168 0.11119932 0.0598985 0.035328772 0.18716817
0.010115557 -0.04364686 -0.007819678 0.10355202 0.03322583 0.02750754 0.10630681 0.03192196
0.10266081 0.06280486 0.13003246 0.14268543 -0.08111474 0.021781053 -0.15310048 0.14631675
0.07418212 -0.021034524 0.09639963 0.081853196 0.03253685 0.11502736 -0.07583016 -0.030521225
-0.08878285 -0.009185678 -0.037256144 0.08351202 -0.018776014 0.08772396 -0.06252449 -0.0031873882
0.06809836 -0.14507489 -0.10259779 0.014760515 -0.009206486 0.0067788237 0.010910206 0.025199685
-0.012638747 -0.08657727 -0.099312976 0.068561316 -0.1519405 -0.08977903 0.09073464 0.10310931
0.12598802 0.06180282 0.1122911 0.10700319 -0.05961658 0.14069359 -0.045415733 0.053588077
-0.038561974 -0.0061270427 -0.11044069 -0.004885625 -0.0040628584 -0.06115389 -0.10354823 -0.089694835
-0.12558398 0.0454459 -0.06856775 0.011716345 0.0743949 -0.032283258 -0.11894004 0.11773626
0.095677696 0.14009368 0.036345456 -0.021503896 0.12022041 -0.023278257 0.1139179 -0.022405365
-0.020016674 0.029949382 0.023930645 0.10642033 0.024393855 -0.12353236 0.13835146 -0.13162327
-0.0018618865 -0.047115505 -0.027892666 -0.08163175 0.0118669905 -0.09852052 0.0837197 0.12360974
0.023174018 0.11094589 -0.119528815 0.03788223 -0.10108424 -0.08021069 0.08473299 0.0026327772
0.11152092 0.05951751 -0.06699181 0.061354607 -0.06800992 0.09324933 0.08237251 -0.05350873
0.17284806 0.0517066 0.11245522 0.062136646 0.12378049 -0.06189407 -0.00043145794 -0.031118307
-0.08868308 0.021635136 -0.040214457 0.071422614 -0.0043583857 -0.03457228 0.09499525 -0.118519574
0.12658915 0.091013044 0.01651182 -0.06558015 0.06307746 0.12844676 0.12238258 -0.077314906
0.0036918973 -0.054775976 0.08818329 -0.06254256 -0.0029530122 -0.032979723 0.053606614 -0.010253855
-0.07361808 0.032590274 0.008277201 -0.11421016 0.066718206 0.021742549 -0.08636642 0.16136429
-0.0785347 -0.044040367 0.12177858 0.04425205 0.0972813 0.03182177 0.0061626732 -0.02063281
-0.08492218 -0.061982147 0.15919313 -0.09482156 0.07325 -0.01744604 0.1119561 0.058914244
-0.054985065 0.053031087 -0.051616404 -0.03160896 0.1273248 0.023537807 -0.121492535 -0.05057574
-0.049544904 -0.057048462 0.17325999 0.13588297 -0.024672568 -0.022652594 0.048656456 -0.013221296
0.045947894 0.052921887 0.07117171 -0.049860958 -0.12089053 0.11331284 -0.026208427 -0.03784952
00000000: 70e2 a93c 2339 d9bd 4183 b23d 426e e93d
00000010: 6807 f23d e133 ff3d a8a3 38bb 67b5 a7bd
00000020: ce45 0b3e bfbf e33d 8e7c 00bd 7896 cabd
00000030: d4a6 12bc 688c 8cbb f2b2 8bbd a79c a13b
00000040: 2f9c 213d 65de bd3d ec34 8cbd 1450 9d3d
00000050: 5dac 033e 8ccb 0dbd 14ea f4bd 3d23 a3bd
00000060: fc91 adbc 7544 b83d f9d7 7dbc 0d78 1abe
00000070: 899b ec3d acac 01be f0f2 123d 16d6 bebb
00000080: 8d61 b03d be38 e43c b3c0 cb3d 47bc e6bd
00000090: a988 dabd 2ec8 4c3d 687b 883d 1d40 0c3e
000000a0: c313 3cbd ec78 873d a8fc 9bbd 8c39 8dbd
000000b0: c51a 543c bc0b 023e b51c ee3c 85a6 4e3d
000000c0: ee21 ddbc 3749 2b3d 1261 b0b9 1526 573d
000000d0: a4a1 99bd bc64 ce3b 6147 e0bd 2ee0 053e
000000e0: 8d2f 223d cb6a 1b3e b3f4 eb3d 8e52 8f3d
000000f0: 78bc e33d 2158 753d e7b4 103d 03a9 3f3e
00000100: b9bb 253c 0dc7 32bd 1b1e 00bc 1513 d43d
00000110: cf17 083d 7e57 e13c 63b7 d93d 9ac0 023d
00000120: d53f d23d d69f 803d 3b27 053e 211c 123e
00000130: 7c1f a6bd 2e6e b23c 5fc6 1cbe 0fd4 153e
00000140: ccec 973d 9850 acbc 2b6d c53d a6a2 a73d
00000150: 5c45 053d 7793 eb3d d84c 9bbd a607 fabc
00000160: c8d3 b5bd 877f 16bc e699 18bd 5a08 ab3d
00000170: 28d0 99bc 9fa8 b33d d70c 80bd 80e3 50bb
00000180: 2777 8b3d 838e 14be ca1e d2bd 16d6 713c
00000190: cdd6 16bc e520 de3b b8c0 323c 926f ce3c
000001a0: bf12 4fbc 6c4f b1bd 9a64 cbbd e069 8c3d
000001b0: 4a96 1bbe 11de b7bd 15d3 b93d f92a d33d
000001c0: 0103 013e f424 7d3d e0f8 e53d 7d24 db3d
000001d0: 8430 74bd fb11 103e d905 3abd 2c7f 5b3d
000001e0: 29f3 1dbd 5cc5 c8bb ba2e e2bd 9817 a0bb
000001f0: ba21 85bb 807c 7abd 1811 d4bd edb1 b7bd
00000200: 1699 00be 7b25 3a3d 406d 8cbd eaf5 3f3c
00000210: 5a5c 983d 733b 04bd d696 f3bd b51f f13d
00000220: abf2 c33d b874 0f3e f9de 143d f028 b0bc
00000230: 1e36 f63d 0bb2 bebc ca4d e93d 758b b7bc
00000240: 02fa a3bc 6858 f53c 330a c43c e7f2 d93d
00000250: 9fd5 c73c 89fe fcbd 01ac 0d3e 40c8 06be
00000260: 8b0a f4ba 30fc 40bd 297f e4bc 8c2e a7bd
00000270: c46d 423c 20c5 c9bd 3c75 ab3d 1a27 fd3d
00000280: 70d7 bd3c 9937 e33d 86cb f4bd 662a 1b3d
00000290: 4105 cfbd 8145 a4bd 7d88 ad3d ac8a 2c3b
000002a0: 1565 e43d a2c8 733d 0133 89bd f84e 7b3d
000002b0: c948 8bbd 81f9 be3d ebb2 a83d f82b 5bbd
000002c0: 15ff 303e 4dca 533d ec4e e63d ff82 7e3d
000002d0: a080 fd3d a384 7dbd 4e35 e2b9 d2eb febc
000002e0: 7a9f b5bd 2b3c b13c eab7 24bd 0546 923d
000002f0: cad0 8ebb aa9b 0dbd df8c c23d 64ba f2bd
00000300: 96a0 013e 0c65 ba3d cc43 873c e34e 86bd
00000310: c12e 813d 8c87 033e b8a3 fa3d 4757 9ebd
00000320: c2f3 713b c65c 60bd 7199 b43d 5016 80bd
00000330: 5387 41bb bf15 07bd 9c92 5b3d c9ff 27bc
00000340: 13c5 96bd 617d 053d 199d 073c 04e7 e9bd
00000350: 8ea3 883d 6e1d b23c e1e0 b0bd ae3c 253e
00000360: cdd6 a0bd ac63 34bd 0c67 f93d a341 353d
00000370: 6b3b c73d 8b57 023d 40f0 c93b 2406 a9bc
00000380: aeeb adbd fee0 7dbd 8603 233e ce31 c2bd
00000390: 1904 963d ffea 8ebc 3d49 e53d 1050 713d
000003a0: 0538 61bd 2037 593d b96b 53bd 6678 01bd
000003b0: 6f61 023e 5cd2 c03c 14d1 f8bd 8228 4fbd
000003c0: 99ef 4abd a6ab 69bd 116b 313e e824 0b3e
000003d0: 201e cabc ef91 b9bc fe4b 473d 229e 58bc
000003e0: dc33 3c3d 9fc4 583d 79c2 913d 013b 4cbd
000003f0: 7495 f7bd 9010 e83d 0eb3 d6bc 1908 1bbd

StatefulPartitionedCall/sequential_18/dense_48/BiasAdd/ReadVariableOp:0 f4 [250]
-0.0016385618 -0.0054589612 -0.011066434 0.017655607 0.0020055347 0.010871527 -0.02460876 0.016596677
0.007685115 0.0029231089 -0.0074225264 0.024882179 0.0055754962 -0.0019451358 0.0013366021 0.015741607
-0.005725158 -0.014597753 0.006646573 0.019178445 -0.0038425168 0.00018441961 0.0057675675 0.028457746
0.011621807 0.003360319 0.003179963 0.004240776 0.021162882 -0.0048991344 0.010386706 -0.012515674
-0.014257625 -0.00090454705 -0.02257541 0.008571247 -0.0029282556 0.01032216 0.008661792 0.018643998
0.010636043 -0.004274275 0.021289447 0.021426987 -0.0055367816 0.007112979 -0.006935493 0.00052963104
0.0013449235 0.0030913579 0.010960046 0.008868086 -0.0047386903 -0.006022782 -0.009858461 0.045618575
-0.009594666 0.0035193216 -0.0006943971 0.025034022 -0.00047753964 -0.00089167856 -0.01507497 0.049778845
-0.013153133 -0.0017491553 -0.00636029 0.0022915853 -0.005241306 -0.008764822 -0.016940732 -0.018465677
-0.015238745 0.003773277 -0.008093081 0.007462906 0.0053633843 0.018113347 -0.029808698 0.04476819
0.014060376 -0.0016647257 -0.010346577 0.033895224 0.00089040655 -0.00042111712 -0.006554757 0.00091689575
0.012392685 -0.0007544472 -0.019810846 0.02142223 0.011024197 0.009000906 0.0012190593 0.013558057
-0.013218007 0.004755251 0.009348156 0.02404201 0.013237515 -0.0037899145 0.016474536 0.00071912626
0.0017473005 0.02072346 -0.009359147 -0.004013051 -0.00938792 -0.016128946 -0.0169422 0.0043751798
0.01784072 0.0023430951 0.0030825476 -0.0037567625 0.0047257827 0.010349028 -0.0032627473 0.005061105
-0.01136416 0.019701641 0.00057639525 -3.8666778e-05 0.011981615 -0.009769257 -0.0075557027 0.0042850133
-0.004619906 0.008040147 -0.00032687967 -0.015778672 -0.005585915 0.023481432 0.005831159 0.0024662986
0.010016993 -0.0023280578 0.009404051 0.007535609 -0.0003023772 -0.004288842 0.0037798563 0.0030071633
0.01091811 -0.0050616763 0.0025535554 0.015252759 0.0023227558 0.010009821 0.012926993 -0.003685393
0.008694866 0.0055182874 0.0055380384 -0.018044101 -0.0060788514 0.0003967417 -0.009096356 -0.011771189
-0.010172916 0.013214401 -0.0034680776 -0.009716765 -0.014729927 0.020440176 0.017401418 -0.002343989
0.008634947 -0.018012514 -0.018614883 0.01411852 -0.007924152 -0.004786486 -0.0266832 0.043631308
0.035480592 0.03023474 0.025582757 0.026885757 0.037716217 0.052366097 0.042847484 0.016999248
0.022740537 0.040116597 0.04760955 0.021009399 0.035459127 0.038204003 0.045145232 0.014874889
0.034775216 0.03385606 0.032443132 0.04908924 0.042095095 0.023815308 0.03191198 0.037868608
0.02507847 0.034452382 0.00031849238 0.02773576 0.022682358 0.016737616 0.04693614 0.030772561
0.029875292 0.03810276 0.017320447 0.020442782 0.042879704 0.043241836 0.02819639 0.027833143
0.037575673 0.01593322 0.02414821 0.021059245 0.032427795 0.027598573 0.023598757 0.027018089
0.025564168 0.023815496 0.04242536 0.01876529 0.053371597 0.033919003 0.04357152 0.03818525
0.030385206 0.03485882 0.010300001 0.044500325 0.020815048 0.022667553 0.018050669 0.01809524
0.023600891 0.0322167 0.045645617 0.0271485 0.04193402 0.03314426 0.02845832 0.028252536
0.036902945 0.01800634
00000000: 03c5 d6ba 16e1 b2bb fd4f 35bc 7ea2 903c
00000010: 4a6f 033b 7d1e 323c 4f98 c9bc c1f5 873c
00000020: 6bd3 fb3b a191 3f3b aa38 f3bb b6d5 cb3c
00000030: a7b2 b63b edf3 feba ed30 af3a 8bf4 803c
00000040: 1b9a bbbb 6a2b 6fbc 7fcb d93b 1d1c 9d3c
00000050: bcd2 7bbb c360 4139 ddfd bc3b 3820 e93c
00000060: 6469 3e3c cc38 5c3b ed66 503b 35f6 8a3b
00000070: c85d ad3c eb88 a0bb 012d 2a3c 8b0e 4dbc
00000080: d098 69bc 201f 6dba 11f0 b8bc 6a6e 0c3c
00000090: fae7 3fbb 471e 293c 30ea 0d3c 4cbb 983c
000000a0: cc42 2e3c 380f 8cbb 3567 ae3c a687 af3c
000000b0: e46d b5bb fe13 e93b 2243 e3bb f0d6 0a3a
000000c0: 2548 b03a 6198 4a3b c491 333c 734b 113c
000000d0: 0447 9bbb c25a c5bb 6285 21bc 8bda 3a3d
000000e0: f232 1dbc 6ba4 663b 3308 36ba 2614 cd3c
000000f0: 495e fab9 89bf 69ba 02fd 76bc e7e4 4b3d
00000100: 3d80 57bc ea43 e5ba fb69 d0bb 6c2e 163b
00000110: 43bf abbb 549a 0fbc 4ac7 8abc 5545 97bc
00000120: eeab 79bc 1549 773b d898 04bc 658b f43b
00000130: 54bf af3b 7162 943c 5f31 f4bc d95e 373d
00000140: 7e5d 663c ed32 daba b084 29bc b8d5 0a3d
00000150: 2c6a 693a 62c9 dcb9 49c9 d6bb d55b 703a
00000160: b00a 4b3c 18c6 45ba 5b4a a2bc ac7d af3c
00000170: d59e 343c 8978 133c d8c8 9f3a 9d22 5e3c
00000180: 5790 58bc f0d1 9b3b 0229 193c c0f3 c43c
00000190: 2ae2 583c 3760 78bb 9bf5 863c bf83 3c3a
000001a0: ad05 e53a 3fc4 a93c 1c57 19bc e97f 83bb
000001b0: cacf 19bc da20 84bc 5eca 8abc ab5d 8f3b
000001c0: b426 923c 9d8e 193b 9104 4a3b 0434 76bb
000001d0: bdda 9a3b f88e 293c d1d3 55bb a0d7 a53b
000001e0: be30 3abc 5665 a13c 3b19 173a 232e 22b8
000001f0: 894e 443c 3c0f 20bc d495 f7bb 4c69 8c3b
00000200: 9562 97bb d2ba 033c 0c61 abb9 4642 81bc
00000210: 0d0a b7bb 225c c03c 4f13 bf3b a0a1 213b
00000220: 501e 243c 5492 18bb 7313 1a3c 45ed f63b
00000230: 6188 9eb9 6a89 8cbb 77b7 773b d413 453b
00000240: dfe1 323c 6bdc a5bb 8d59 273b b5e6 793c
00000250: 6039 183b 3b00 243c bdcb 533c a286 71bb
00000260: e974 0e3c c0d2 b43b 6f78 b53b 39d1 93bc
00000270: 1a31 c7bb c501 d039 e208 15bc f2db 40bc
00000280: 4dac 26bc 3781 583c b048 63bb 1133 1fbc
00000290: cb55 71bc 2872 a73c 6b8d 8e3c 9c9d 19bb
000002a0: 9879 0d3c fb8e 93bc 3d7e 98bc 5d51 673c
000002b0: 4dd4 01bc f4d7 9cbb ba96 dabc beb6 323d
000002c0: 1954 113d d8ae f73c ee92 d13c 853f dc3c
000002d0: 527c 1a3d d57d 563d d880 2f3d 0242 8b3c
000002e0: 5d4a ba3c 4d51 243d 3b02 433d e71b ac3c
000002f0: 973d 113d cd7b 1c3d 35ea 383d ceb5 733c
00000300: 7570 0e3d a7ac 0a3d 17e3 043d cd11 493d
00000310: e86b 2c3d 5218 c33c 23b6 023d 1d1c 1b3d
00000320: 5d71 cd3c f11d 0d3d 53fb a639 1b36 e33c
00000330: 5ad0 b93c 531d 893c 1c40 403d bd16 fc3c
00000340: 07bd f43c a411 1c3d 9ce3 8d3c 9f77 a73c
00000350: a1a2 2f3d 5a1e 313d 1efc e63c 5502 e43c
00000360: f3e8 193d 6286 823c 78d2 c53c 7084 ac3c
00000370: 02d3 043d 6716 e23c 2e52 c13c 0a55 dd3c
00000380: f26b d13c b718 c33c 37c6 2d3d aab9 993c
00000390: 2d9c 5a3d a7ee 0a3d 0d78 323d 2368 1c3d
000003a0: 65ea f83c 1fc8 0e3d 56c1 283c f945 363d
000003b0: 5284 aa3c 4eb1 b93c ffde 933c 783c 943c
000003c0: a856 c13c a9f5 033d e6f6 3a3d 8866 de3c
000003d0: 02c3 2b3d 47c2 073d 6c21 e93c dd71 e73c
000003e0: 8b27 173d 0882 933c

StatefulPartitionedCall/sequential_18/dense_47/MatMul/ReadVariableOp:0 f4 [3, 64]
-0.16693713 -0.011098621 -0.22367516 0.09269996 -0.1456461 0.20965472 0.044373576 0.18685505
-0.21873541 0.22767863 -0.03029215 -0.11303977 0.06833455 0.203902 -0.100089386 -0.047726028
0.027726285 -0.22838917 -0.05151491 -0.1922407 0.0203171 -0.12319035 -0.043246955 0.124416076
0.117411606 0.10103293 -0.1804649 -0.15000655 -0.020961866 0.23731488 0.25386766 -0.14489283
0.039368715 -0.08253153 0.07688883 -0.21888016 0.12791875 0.062116593 0.27447942 -0.06144524
0.09445358 -0.06976793 -0.05951558 0.120888084 0.057266265 0.06474698 -0.20295931 0.15649454
-0.098114446 0.045884173 -0.23237234 0.08176024 -0.037983317 0.12034553 0.07398931 0.05532509
-0.13853799 0.07049088 -0.004641937 -0.13897699 0.15693583 -0.02372882 0.14514038 -0.020865161
-0.10727429 0.23061295 0.01702982 -0.19847518 0.24164622 -0.240069 0.02772904 -0.17470486
0.2649709 0.17024946 0.15476555 0.10033906 -0.21956713 -0.15101431 0.16758414 0.1929213
-0.03652202 0.012306708 0.14990024 -0.23931058 0.037231516 -0.22885774 0.24398518 0.25278673
0.048016716 -0.09183106 -0.009600509 0.12470315 0.23700398 -0.22435074 -0.106291965 -0.29738933
-0.12328275 -0.09471771 0.029702628 0.015876254 -0.085740715 0.25669113 -0.0068571316 0.00012425683
0.047217917 0.2655004 0.2635425 -0.008646019 -0.116610184 -0.12260609 0.15404749 -0.12898959
0.22108041 0.24901766 -0.11691982 -0.26685807 -0.14621858 -0.09236965 -0.12100294 0.18721464
0.23372447 0.028317077 -0.042944912 0.16292773 -0.22708634 0.24139309 0.20774636 0.1204996
0.100245304 -0.19417956 -0.23538005 -0.011576298 -0.065501325 0.22479895 -0.09401441 0.10586148
-0.21415932 -0.14688037 0.2235714 0.01768562 -0.18733206 -0.041590717 -0.029423151 -0.12325317
0.16797063 0.2559672 0.119165964 0.033958904 -0.056804396 -0.04719323 0.14375255 0.17932674
-0.023560982 0.053996857 0.13509484 0.064098686 0.12005131 0.0696982 0.062607855 0.16958728
0.008693028 -0.13297771 0.028664028 0.07888658 0.15582933 -0.2875768 -0.104909405 -0.08922327
-0.14377747 -0.18221083 0.23541377 -0.273091 -0.1165114 -0.26964328 0.10693645 -0.046037525
-0.20521164 0.009710806 0.28281602 0.21250793 0.2547877 -0.037713364 0.068426505 0.019442622
-0.19925901 0.1641708 -0.17627363 0.21414787 -0.22827241 -0.059776146 0.05335223 -0.20184207
00000000: 91f1 2abe fed6 35bc 1a0b 65be 7ad9 bd3d
00000010: 4024 15be baaf 563e 11c1 353d ee56 3f3e
00000020: 2dfc 5fbe 9624 693e 3e27 f8bc 6581 e7bd
00000030: fcf2 8b3d b0cb 503e aafb ccbd 5e7c 43bd
00000040: 3c22 e33c dade 69be 4c01 53bd bfda 44be
00000050: 0c70 a63c 394b fcbd b823 31bd dbcd fe3d
00000060: 7f75 f03d 5aea ce3d cacb 38be 519b 19be
00000070: 38b8 abbc ac02 733e f1fa 813e c95e 14be
00000080: 1741 213d 4a06 a9bd e477 9d3d 1f22 60be
00000090: 22fd 023e f86d 7e3d 9188 8c3e 01ae 7bbd
000000a0: e170 c13d 7de2 8ebd 9cc6 73bd 2c94 f73d
000000b0: 0890 6a3d 119a 843d 91d4 4fbe 1b40 203e
000000c0: 3af0 c8bd 0bf1 3b3d 04f3 6dbe ea71 a73d
000000d0: 6594 1bbd b877 f63d b587 973d 909c 623d
000000e0: e7dc 0dbe 865d 903d 641b 98bb fc4f 0ebe
000000f0: c9b3 203e f162 c2bc ae9f 143e 6aed aabc
00000100: 9fb2 dbbd cd25 6c3e 1f82 8b3c 143d 4bbe
00000110: 1b72 773e a6d4 75be 0328 e33c d5e5 32be
00000120: 44aa 873e e055 2e3e dc7a 1e3e 917e cd3d
00000130: 35d6 60be 7fa3 1abe 2d9b 2b3e 298d 453e
00000140: 1d98 15bd 13a2 493c 737f 193e d50d 75be
00000150: 1380 183d af59 6abe 40d7 793e 436d 813e
00000160: 2dad 443d ec11 bcbd 744b 1dbc 5d64 ff3d
00000170: 2cb1 723e 33bc 65be 9aaf d9bd 6a43 98be
00000180: ab7b fcbd 5cfb c1bd ed52 f33c eb0e 823c
00000190: d498 afbd 056d 833e cab1 e0bb f04a 0239
000001a0: 9367 413d abef 873e 0bef 863e 08a8 0dbc
000001b0: 52d1 eebd e718 fbbd a0be 1d3e d915 04be
000001c0: e762 623e 7cfe 7e3e a973 efbd 9fa1 88be
000001d0: 53ba 15be 4d2c bdbd 64d0 f7bd 32b5 3f3e
000001e0: 7855 6f3e 37f9 e73c 01e7 2fbd 87d6 263e
000001f0: 5289 68be c02f 773e 76bb 543e 7fc8 f63d
00000200: 694d cd3d 02d7 46be 7807 71be 83aa 3dbc
00000210: 8f25 86bd b231 663e a18a c0bd e7cd d83d
00000220: 954c 5bbe cf67 16be e7ef 643e 6fe1 903c
00000230: fad3 3fbe 075b 2abd d208 f1bc 286c fcbd
00000240: 7e00 2c3e 220e 833e 490d f43d 7e18 0b3d
00000250: baab 68bd b04d 41bd de33 133e 6ea1 373e
00000260: f602 c1bc cf2b 5d3d 4d56 0a3e 2c46 833d
00000270: 76dd f53d eebd 8e3d 8c38 803d 4aa8 2d3e
00000280: 346d 0e3c 4f2b 08be d3d0 ea3c 4a8f a13d
00000290: b991 1f3e 443d 93be beda d6bd b1ba b6bd
000002a0: 673a 13be 7a95 3abe 4f10 713e 95d2 8bbe
000002b0: 879d eebd af0e 8abe 7f01 db3d d891 3cbd
000002c0: 0023 52be 131a 1f3c 43cd 903e ae9b 593e
000002d0: 8973 823e 5479 1abd 3223 8c3d 2246 9f3c
000002e0: 8e0a 4cbe 641c 283e 1381 34be 9449 5b3e
000002f0: 3ec0 69be d5d7 74bd de87 5a3d b0af 4ebe

StatefulPartitionedCall/sequential_18/dense_47/BiasAdd/ReadVariableOp:0 f4 [64]
0.0239127 0.0150476135 0.0028387923 -0.014673443 0.048514962 -0.014495709 0.03643993 -0.019630691
0.009677297 0.025277803 -0.032040387 -0.016777271 -0.031452406 -0.008789377 -0.0066165775 -0.007506415
0.036981754 0.03592944 0.050012745 0.0368394 -0.0011394785 0.020467678 0.019863259 -0.0022405668
-0.009149963 0.049234983 -0.01812711 0.003062879 -0.015129595 -0.011848512 0.031025652 -0.022040397
-0.029204074 0.001766027 0.03472601 -0.023448553 0.0238165 0.016679121 0.012384539 -0.016069679
0.023307387 -0.029174902 0.009358863 0.045945987 0.029577471 0.043577526 -0.016354196 -0.010038385
-0.026099507 0.014583321 -0.022927906 0.024767535 -0.027277125 0.019882975 -0.015974706 -0.0024048148
0.025274225 0.015540616 0.02365788 0.042350516 0.014919697 -0.031982396 0.046887025 0.02910116
00000000: 91e4 c33c 448a 763c 080b 3a3b e168 70bc
00000010: a0b7 463d 697f 6dbc 0942 153d 8bd0 a0bc
00000020: 878d 1e3c 6513 cf3c c83c 03bd 7d70 89bc
00000030: 3dd4 00bd 5201 10bc e0cf d8bb 5ff8 f5bb
00000040: 2e7a 173d c02a 133d 2ada 4c3d e9e4 163d
00000050: 8e5a 95ba d5ab a73c 46b8 a23c 79d6 12bb
00000060: bae9 15bc 9faa 493d 4e7f 94bc 95ba 483b
00000070: 1fe2 77bc 4320 42bc 8229 fe3c 108e b4bc
00000080: 623d efbc 087a e73a dc3c 0e3d 2e17 c0bc
00000090: d21a c33c a7a2 883c 85e8 4a3c 8fa4 83bc
000000a0: 22ef be3c 3400 efbc eb55 193c dc31 3c3d
000000b0: 744c f23c 597e 323d 3cf9 85bc 0a78 24bc
000000c0: a2ce d5bc e2ee 6e3c 4ed3 bbbc 49e5 ca3c
000000d0: 4774 dfbc 9fe1 a23c 63dd 82bc 199a 1dbb
000000e0: e40b cf3c 119e 7e3c 2cce c13c bc77 2d3d
000000f0: bf71 743c f9ff 02bd 9c0c 403d 8e65 ee3c
