Resources/NNModels/10-30-20/kinect_model.onnx (onnx, 35577 bytes, 4 tensors)

StatefulPartitionedCall/sequential_5/dense_11/MatMul/ReadVariableOp:0 f4 [128, 54]
00000000: 361e 15be 5df7 483e c711 10be 260a 92bd
00000010: bb46 c8bd f6fc 8cbd ca2d a43d fbe2 8bbd
00000020: cbd2 b83d 0575 56bc 4805 c6bd c8eb afbd
00000030: 1f3f 0e3e cc1b c93d b2fd 243e b233 13bd
00000040: 74ab d33d b0c5 383e 2f3f 183e 000a a6bd
00000050: 3a83 893c 18c2 d0bd 3a23 d03d c9a7 b33d
00000060: ab5a fa3d b9b2 dc3c 18f8 ec3d 0daf 393e
00000070: 15df 073e 33ae 60bb a22b 3f3e 3842 cebd
00000080: b45c 08be 5178 5fb9 7ae5 e23d cdfc 133e
00000090: f6de ebbd f24c dfbd 224c 143e e5e3 eabd
000000a0: a584 babd 908a d33d 5e19 1d3e 3ad1 283d
000000b0: 01fb 18be fc68 1a3e 703f 13be ccf0 55bc
000000c0: 4776 0e3d 8fd2 15be b361 013e f75c bcbd
000000d0: 9b5c a33d dd7e 7b3b 8bcd d2bd 1cce c73d
000000e0: 12f1 0b3e b874 27be 1655 8f3c 0838 213e
000000f0: 3ef3 bd3d 3bf0 10be 3227 ccbd e583 2c3e
00000100: 03ac 4e3d 8236 a3bd aaba b8bd 345b 573d
00000110: 661e 9f3c 8c0a 093e 3b6c dabd f01e cc3b
00000120: 3a13 23be e17f 3b3e 8ba5 e2bd ed3c ef3c
00000130: 9705 473d d431 4c3d 3984 1c3e 1b93 0bbe
00000140: 1991 f03c 2304 093d 8b27 5ebd 59f9 e9bd
00000150: f3cd 9a3c 321e 09be ca10 1a3e 4b0b b23d
00000160: 578c fdbc 22fd 123e 27b3 213d e52a 6b3c
00000170: cae8 013e bc03 88bd 9aa1 673c 3e18 03bd
00000180: 20c2 0a3e 6370 103e 9c12 2b3e 1ee1 113e
00000190: d473 af3d 8ab2 08be 29c7 3f3e 92f9 aebd
000001a0: 685c 943a 2ce3 e53d c454 d7bd 1593 1abe
000001b0: ac88 7c3d 4bae 5b3d fc02 19be 9d0d 5d3b
000001c0: 9550 c8bd fc98 723d 2839 18be 4944 9c3d
000001d0: 386e e43d 3c09 423e 8201 f73d 50ac 803d
000001e0: cbbf ae3d 1d67 053e 890a c53d 86cb b0bc
000001f0: af44 e53d 4d79 1abd af62 e4bd cbc2 7b3d
00000200: d86a 363e 1662 cf3b 7da6 06be dedb 66bd
00000210: 975e a6bd c45e 4e3d 336f 813d 58dd d03d
00000220: f168 01be c658 2cbb 61d8 eabd b5c8 2b3e
00000230: 1856 e53d 3d22 673c cf9d 393e 6905 1d3e
00000240: a7bc 93bd 4e9c d5bd 6508 9e3d 110a 22bd
00000250: 1472 f83b 7894 acbc c8de 04be 9016 c33c
00000260: bfe2 fabc 4600 1ebe d6cc 993c 4675 a43d
00000270: 4d32 e83d 3e9a ab3d 1a2c d6bd 2b2c f0bc
00000280: 32dc bebd be92 1ebd 4a30 fcbc 7e60 903d
00000290: 0d0c 0cbe abe2 af3c 64f2 cf3d 9d17 74bd
000002a0: 2663 7c3d 1c35 c53d 8d4d 87bd e013 e63d
000002b0: 1aef 123e a6b0 f33d 4bc1 ae3d e650 96bd
000002c0: bf9d e73d a556 7fbd a7d0 fc3d 5f71 0abe
000002d0: a261 633d d653 1f3e 87b2 18be 08c7 d5ba
000002e0: 8768 b23d 75c5 573e 10d6 9f3d 8783 093e
000002f0: e0cb 193e 8350 e73d e9f0 52bd c6c1 ec3c
00000300: e42e 673c cb61 b9bd 09cc 1cbe 93e8 dc3d
00000310: dcc2 4cbd 38de af3d 94b7 25be 151a 373e
00000320: 9126 4fbc b181 153e c57d efbb 434a 073e
00000330: c03a 023e 7ed1 ee3d c6c1 23be 4586 f5bd
00000340: 8abf 9cba 040e 24bd aef8 053d 2f2f 4fbd
00000350: 91fa ebbd bfc4 a33d 6ab1 dc3d e3cd 13be
00000360: 82a8 13be 6c72 1ebe d0ad 403e 1bbe 29be
00000370: 43b9 87bd 93eb 183d 171d db3d f05a 22be
00000380: 55b0 193e 15c0 8dbd f170 5abd 75b9 01be
00000390: 6fa4 d93d 5e81 a63d 0218 debc a24d 17be
000003a0: bb4a 9b3d a91f 7bbd ad74 77bd dc08 ab3d
000003b0: e4dd 4f3c a1a0 ec3d 5343 2d3e 0c62 303e
000003c0: b499 3abe d11b 0cbe 3c22 f23d b0fc 153e
000003d0: 0f08 c8bd 769e f93d e134 1e3d 79f8 e0bc
000003e0: 4598 263e 74e8 1dbe 24e2 33bd ce7f 57bd
000003f0: 30a6 0cbd dd9d 4cbd 9a1c c23b ccee 273e
-0.14562306 0.19625612 -0.14069282 -0.07130842 -0.09779116 -0.06884186 0.08016546 -0.068304025
0.090245806 -0.013089423 -0.09668976 -0.085898936 0.13891266 0.09819755 0.16112402 -0.035937972
0.103354365 0.18044162 0.14867853 -0.08107376 0.016786207 -0.101932704 0.10162969 0.08772237
0.12224325 0.02694069 0.11570758 0.18133183 0.13268693 -0.0034283518 0.18668988 -0.10071224
-0.13316613 -0.00021311759 0.110789254 0.14451905 -0.11517136 -0.10903348 0.14482167 -0.11469249
-0.09107331 0.10329163 0.15341708 0.04121516 -0.149395 0.15079111 -0.14379668 -0.013057899
0.034780767 -0.14631103 0.12634926 -0.09197419 0.079766475 0.0038375177 -0.102931105 0.09756109
0.1366618 -0.16353118 0.017496627 0.1574403 0.092749104 -0.1415414 -0.099684134 0.16847189
0.050457012 -0.07969381 -0.09019978 0.052577212 0.019423675 0.1338293 -0.106651746 0.006229274
-0.15925303 0.183105 -0.11066731 0.029203856 0.048589315 0.049852207 0.15284814 -0.13630335
0.029366063 0.03345121 -0.05423693 -0.114245124 0.018897032 -0.13390425 0.15045467 0.0869356
-0.030950708 0.14354375 0.039477494 0.014353489 0.12686458 -0.06641337 0.01413765 -0.03200554
0.13550615 0.14105372 0.16706318 0.14246032 0.08567014 -0.13349357 0.18728317 -0.085436955
0.0011319043 0.1122497 -0.10514215 -0.1509517 0.061653778 0.053633016 -0.14942545 0.0033730038
-0.09780995 0.05922793 -0.14865553 0.07630212 0.11153835 0.18948835 0.120608345 0.06282866
0.08532675 0.13027616 0.0962115 -0.021581423 0.11194741 -0.037713338 -0.11151635 0.061465066
0.17814195 0.0063288314 -0.13149448 -0.056362025 -0.0812351 0.050383344 0.06320038 0.10198468
-0.12637688 -0.002629803 -0.11467052 0.16775782 0.11198062 0.014107284 0.18126605 0.15334095
-0.07213717 -0.104302034 0.07716445 -0.03956038 0.0075819585 -0.02106689 -0.1297561 0.02381447
-0.0306257 -0.15429792 0.018774431 0.08030181 0.11337719 0.08379029 -0.104576305 -0.029317936
-0.09319343 -0.038714163 -0.030784745 0.070496544 -0.13676472 0.021470388 0.10153654 -0.059592832
0.061617993 0.096292704 -0.066065885 0.112342596 0.14349023 0.118989274 0.085329615 -0.07339649
0.113093846 -0.06233849 0.12344485 -0.1351981 0.05551303 0.15559325 -0.14911853 -0.0016309926
0.08711343 0.21071418 0.07804501 0.1342908 0.15019178 0.11294653 -0.05149928 0.028900992
0.014110301 -0.09051856 -0.15312208 0.107865475 -0.04999052 0.08587307 -0.16183311 0.17881043
-0.012643472 0.14600255 -0.007308694 0.13211922 0.12717724 0.11661051 -0.15991887 -0.119885005
-0.0011958939 -0.04005243 0.032707863 -0.050582107 -0.11522401 0.07996511 0.107760265 -0.14434008
-0.1441975 -0.15473336 0.18816304 -0.16576426 -0.06627133 0.037334036 0.10698908 -0.15855002
0.15008672 -0.06921402 -0.053330366 -0.12668402 0.10627066 0.081301436 -0.027111057 -0.14775708
0.07582613 -0.06130949 -0.060414005 0.08351299 0.01268718 0.11554075 0.16920213 0.17224902
-0.18222696 -0.13682486 0.11822936 0.14647174 -0.09767162 0.12188427 0.038624648 -0.027462231
0.16269024 -0.15420705 -0.043916836 -0.05261212 -0.034338176 -0.049955238 0.0059238197 0.16399688

StatefulPartitionedCall/sequential_5/dense_11/BiasAdd/ReadVariableOp:0 f4 [54]
00000000: c41b ad3c 2ed9 993c e2d4 583c 4c30 8abb
00000010: e30b c63b ebd3 303c e52e 373b ef91 393c
00000020: eae0 093c 201a 363c 1659 043c f9db b5b9
00000030: 98cb ad3b 4855 65bb f1e3 a83b 08c5 3bbc
00000040: cffc b23c 892c 3fba 2312 423c b7c6 823c
00000050: d599 923c 8184 923b 51c5 143c 70d5 353b
00000060: f975 e43b bb97 c83c b013 f63b a600 7e3c
00000070: 7df6 573c a4df 73bc d375 8d3c ce52 7f3c
00000080: 6128 633c 5a2c 413c d98f 263c 98ce bebc
00000090: 41b0 18bb 454c 393c 3e2a 83bb 8e23 1f3c
000000a0: c7fe ae3b 293d d8ba 4922 b23a e01a 0b3c
000000b0: f706 a03c 4f0d a63c efeb 3b3c f49b 423b
000000c0: 4168 073c e0ef c43b 3613 c4bb e6c1 35bc
000000d0: b59e 9b3c 4c90 c33b
0.021131404 0.018780317 0.013234349 -0.004217183 0.0060438975 0.010792713 0.0027951535 0.011326297
0.00841544 0.011114627 0.00807788 -0.00034686903 0.0053038113 -0.0034993459 0.005154126 -0.01146055
0.021849064 -0.0007292708 0.011845144 0.015963895 0.017895618 0.004471362 0.009080247 0.0027745627
0.0069720712 0.024486413 0.007509671 0.015503084 0.013181326 -0.014884863 0.017268097 0.015583707
0.013864608 0.011790359 0.010166132 -0.023291871 -0.0023298415 0.011309688 -0.0040028384 0.009713067
0.0053404304 -0.0016497719 0.001359054 0.008490294 0.019534571 0.020270018 0.011469825 0.0029695006
0.008264602 0.0060100406 -0.0059837354 -0.011093592 0.018996576 0.0059681293

StatefulPartitionedCall/sequential_5/dense_10/MatMul/ReadVariableOp:0 f4 [10, 128]
00000000: 8e8b b03d bbc9 b4bd 0a16 20bd 4300 203e
00000010: d45d 303e 248f 0c3e e910 173e ff1d ee3c
00000020: 517f 4f3e 98ca e13d 4c1b bbbd 3985 203e
00000030: ed24 69bd ebbd 7dbc 04c5 c43d 090d a7bd
00000040: ce0b ad3d 0d68 da3d 1298 90ba 682c 1a3c
00000050: e602 f4bd d148 41be 092c a139 82fd dc3d
00000060: f6ac 463d 955d e4bd d7c0 b33d ff0d 1f3e
00000070: 2a72 0b3e 712b 12be c49a 0abe 7123 003e
00000080: 2e3b 093c 7654 d2bc 736e 0abe 47ea f2bc
00000090: 1ad9 613e a4aa fd3b e134 0abe 3d1e bfbd
000000a0: 37ed 86be fae9 edbd f31d 8a3d fadc 73bd
000000b0: 17b8 b9bd fa2d 5abc 3eb9 81bd 0931 efbd
000000c0: f555 ce3d a9c6 2cbe adc3 513e f3a2 a63d
000000d0: e68f a6ba ec81 0bbe 8f2d d43d d937 c6bd
000000e0: f89d a6bd 05eb 1b3e 9f4f 6dbd 008a 883c
000000f0: 826f 573d 9408 6bbe f987 573e f912 133d
00000100: 16e0 39bd 35b5 07be a889 b7bd dbaa 87bd
00000110: 57de c8bd 2845 113e 777b edbd bfe7 9a3d
00000120: bd91 393e fcce a9bd 0bef cdbc a42b 1dbe
00000130: a6ae a13c 7d36 313e b484 7b3e 6518 b2bd
00000140: 61f2 67bd 39a3 d03d fb8a f33d 672f ed3d
00000150: 908b 903d a18b 923d 6f95 efbb e3cb 78be
00000160: 6060 583d 644e ce3d b063 f03d 50e0 90be
00000170: b8b4 dabc 58e6 69be 6afd 393e ac37 53be
00000180: 6840 4d3e 6971 39bd f39d debc 9ea3 aabd
00000190: 367b c53d 5df8 37be 5fee 983c 557c 76be
000001a0: 804d b0bd 6ad2 913d f36a 13bd fb91 0b3b
000001b0: 7ca0 15bd c111 2f3e 3991 8b3e 1e18 623e
000001c0: db2f bfbd e2ed cfbd 1e3c 3bbe 0646 55bd
000001d0: b609 3fbd 6e71 093d f01f 20bd 0c7f 1cba
000001e0: 05d2 3dbd abaf 8d3e 8d5d 023e 2e48 9fbd
000001f0: b9d9 f4bc 0179 823c 2b76 0d3d 6ed2 05be
00000200: 8477 a5bd f0a3 b8bd bd44 00be 1ade a0bd
00000210: 2954 12be d31f 963c d10d 3e3d 893a dfbd
00000220: e901 c9bd db79 453e 3687 cabd 91e9 843d
00000230: 2c33 183e 9d3d c7bd 1193 52be 4c5d 27be
00000240: 4952 12be c5df 4c3d dfed b13d 166c 963d
00000250: 9403 1a3e a194 cfbc f9b1 cb3d dd64 e53d
00000260: ae45 b0bd 17e3 833d 3852 2ebe 2f6f 0abd
00000270: c33f a5bd a845 6ebe fcaf f5bc 58bc b03d
00000280: 47c4 b33d a644 9cbd 5654 3bbe 5af3 0abd
00000290: 5495 21be 5849 ae3d bf49 08be cf73 073e
000002a0: 6887 b5bd 4298 16be 6cd2 8c3c 5661 253d
000002b0: 81cb 9b3c 572d 37be 4cb2 213e c73e b63c
000002c0: 3234 4bbe a62a 1abe 5461 63bd e8f2 0c3e
000002d0: 94ad 013d 7870 293e c87d 5bbe 34da dfbd
000002e0: 0158 c7bc f55c 1cbe e846 bb3d 6367 f93c
000002f0: d42e b33c 1b65 29bd 3220 80bc efdf 24be
00000300: 46db 493e f355 ce3d 59e8 d9bd e3d4 27bd
00000310: d500 e83d a82b 323e 40c2 0dbe 5ece dfbd
00000320: 6260 fa3d 23d2 d1bd 21c3 873d f819 34be
00000330: 941b 3c3e d303 113e cc5f ef3d 6791 3b3e
00000340: c978 fc3d df8c b33c 5979 e53d af3b b83c
00000350: ef27 80bd 32a9 023e 3841 f6ba eede 863b
00000360: 8880 0f3e da99 b73d 56e4 fbbb 002c 333e
00000370: 565a 12be 76da 813d 82bd adbd 8072 cebc
00000380: 8798 3bbe 7cfb e5bd 56d0 683d f974 353e
00000390: ca36 003e 13ef a9bd 7aa8 2abd 5766 a93c
000003a0: bf7c 353d c6a7 30bd b154 3b3a 5d19 38be
000003b0: 96d8 b3bd 2aeb 053d c9fb 0e3e 5a75 303d
000003c0: 9eb9 20be 2cb4 283e cac0 21bd 1937 253e
000003d0: 89fd f23d 9623 3bbe a289 32be 17da 213e
000003e0: 55a9 4dbd 120b 22bd cea4 0dbd 1955 4cbe
000003f0: 7e1f 07be f2e4 74bd c67d 24be 860c 10be
0.08620368 -0.088275395 -0.039083518 0.156251 0.17223293 0.13726479 0.14752544 0.029067038
0.20263411 0.1102497 -0.09136066 0.1567582 -0.05691998 -0.0154871745 0.0960789 -0.08156783
0.08449517 0.10664377 -0.0011031649 0.009410001 -0.11914615 -0.18875434 0.00030741122 0.1079054
0.048504792 -0.11150662 0.08777016 0.15532683 0.13617769 -0.14274384 -0.13535601 0.1251352
0.008375926 -0.02567504 -0.13518696 -0.029652728 0.22055474 0.007741289 -0.13496734 -0.09331939
-0.26352856 -0.11616893 0.067439936 -0.05953691 -0.090683155 -0.013316626 -0.0633416 -0.116792746
0.10074989 -0.16872658 0.204848 0.08136549 -0.001270768 -0.1362378 0.10360252 -0.09678621
-0.08135599 0.15226372 -0.05793726 0.016667366 0.052596577 -0.22952491 0.21047963 0.035906766
-0.04537972 -0.13252719 -0.08961803 -0.06624385 -0.09808033 0.14186537 -0.11595815 0.07563733
0.18122001 -0.08291432 -0.025138399 -0.15348679 0.0197366 0.17305942 0.24562341 -0.08696059
-0.056627635 0.10187382 0.11891743 0.11581307 0.070578694 0.07155538 -0.007311515 -0.24296527
0.052826285 0.100735456 0.11737764 -0.28296137 -0.026697502 -0.22841775 0.18163076 -0.20626706
0.200441 -0.045274172 -0.027174925 -0.08331989 0.09642641 -0.17965837 0.018668352 -0.24070866
-0.08608532 0.071202114 -0.035990667 0.0021296728 -0.036530003 0.17096616 0.27259234 0.22079512
-0.093352996 -0.101527944 -0.18284652 -0.052068733 -0.04664012 0.03355544 -0.039092958 -0.0005969859
-0.04634287 0.27673087 0.12731 -0.07777439 -0.029888975 0.01592684 0.034536522 -0.13068554
-0.080794364 -0.090156436 -0.12526222 -0.078548625 -0.14289917 0.018325722 0.046399895 -0.108998366
-0.098148175 0.19284765 -0.09889071 0.06489862 0.1486327 -0.09728549 -0.20563914 -0.16344184
-0.14289202 0.05001809 0.086879484 0.073448345 0.15040427 -0.025339426 0.09946055 0.11200879
-0.0860704 0.06439798 -0.17023551 -0.03379744 -0.08068802 -0.23268759 -0.029991142 0.08629674
0.08777671 -0.07630281 -0.1829389 -0.033923484 -0.1577962 0.08510083 -0.13309382 0.13227771
-0.08863717 -0.14706519 0.01719018 0.04037603 0.019017937 -0.1788839 0.15790671 0.022246731
-0.1984413 -0.15055332 -0.05551274 0.13764536 0.031659678 0.1654681 -0.214347 -0.10930291
-0.024333956 -0.15269835 0.09144384 0.030444806 0.021872915 -0.041356187 -0.015640352 -0.16101049
0.19712552 0.10074987 -0.1064002 -0.04097451 0.11328284 0.17399466 -0.13843632 -0.10928033
0.12225415 -0.102451585 0.06629015 -0.17588031 0.18369895 0.14161615 0.11688194 0.18317185
0.123277254 0.021917759 0.11204786 0.022489397 -0.06257617 0.12759855 -0.0018787747 0.0041159308
0.14013875 0.08964892 -0.007687132 0.17497253 -0.14292273 0.06340496 -0.08483411 -0.025201082
-0.18319903 -0.112296075 0.05683931 0.17720403 0.125209 -0.08297553 -0.041664578 0.020678682
0.04430842 -0.04312875 0.0007146104 -0.17978425 -0.08781545 0.032694973 0.13963236 0.043080665
-0.15695807 0.1647498 -0.0394905 0.161343 0.11864764 -0.18275294 -0.17435315 0.15805851
-0.050210316 -0.03956134 -0.034580998 -0.19954337 -0.13195607 -0.05978865 -0.16063604 -0.14067277

StatefulPartitionedCall/sequential_5/dense_10/BiasAdd/ReadVariableOp:0 f4 [128]
00000000: bfba 3cbb caea b7bc f4ab fb3b dc75 03bc
00000010: 6274 e5bc 37c6 f4bc e071 8abb f97d e5bb
00000020: 4cf7 f7ba 6743 c73b 7e2f e6bc bc32 3b3c
00000030: 0075 713c a2a6 6ebb 2d30 4ebc efa5 c3bc
00000040: 8373 ecbc bc74 af3c 62c5 0fbc 84eb 9abc
00000050: 9a60 7d3c e217 a9bc 7d48 7b3c 9c73 38bc
00000060: 72a1 aeb9 9b49 363c 3f12 95bb 06a6 7bbc
00000070: f6b6 c5bb 1c47 babc fc7c 41bc 0471 823c
00000080: 3582 303c 6700 6f3c 52ae 933b 9f56 5d3b
00000090: 1c7b a1bc f48c 87bc 2194 8ebc c359 7ebc
000000a0: bd1e 82bc d428 703c 81b0 d4bc fdd6 6ebc
000000b0: e92f dcbb 8171 a6bc e69f 933c 4978 99bc
000000c0: f28d 89bc 1599 7e3c 9387 d43b 509e 87bc
000000d0: d2da 17bc 1a79 a0bc 37b1 aabc e77d 8fbc
000000e0: 3c7e a23b d6fd 0a3c ad51 1b3b f89d 91bc
000000f0: 9e36 073c fa83 83bc 3529 6dbc 509f 94bc
00000100: d0c3 ea3b 2167 afbc 08b5 99bb 0f05 fcbb
00000110: e129 8bbc 6e25 903b 7cc3 c2bc 9715 e53b
00000120: a0de 843b fcd2 91bc b08d 303c d044 7fbc
00000130: a06a 03bb 8b78 64bc 802c bebb 4342 763c
00000140: eb1d 8ebc 487e 913c 4e3f 11bc 2c46 c7bc
00000150: 36f3 0dbc 5b8a 70bc ffcc 983c a4c4 3b3c
00000160: 00c9 e0bc 27bc 733c 7aa8 92bb 7835 babc
00000170: d912 80bc fe18 a8bc c0cc 62bc a47b 9dbc
00000180: a98e e1bb 3427 b3bc 2bbb 103b f61a a43c
00000190: 7d85 b83c 40de 08bd ba00 993c cfc4 bfbc
000001a0: 1dac 9dbc ad37 96bc 200a 9dbc ba96 93bc
000001b0: 6ecd a03c d483 753c 3c4c 6ebc a137 a4bb
000001c0: d136 bcbc b242 5f3c 5b73 5b3c e2f6 f7bc
000001d0: 3035 8abb ad06 043b 8177 c8bc 9691 873c
000001e0: 494b 83bc bea5 243c a8b9 0c3c b287 663c
000001f0: 393b d6bc 5e1f b9bc 2e7d b4bc 954e c5bc
-0.0028797833 -0.022450823 0.0076804105 -0.008023705 -0.028009597 -0.029879672 -0.0042250007 -0.0070035425
-0.0018918305 0.006081033 -0.028098818 0.01142567 0.014737368 -0.003641524 -0.012584728 -0.023882834
-0.028863674 0.021417968 -0.008775087 -0.01891113 0.015464926 -0.020641271 0.015337107 -0.011258032
-0.00033308152 0.011125947 -0.0045492942 -0.015359407 -0.0060337735 -0.022738986 -0.011809584 0.01592303
0.010773231 0.014587498 0.0045068646 0.0033773554 -0.019712023 -0.016546704 -0.017404618 -0.015524331
-0.015883798 0.014658172 -0.02596307 -0.014577624 -0.0067195785 -0.020317795 0.018020581 -0.018734114
-0.016791318 0.015539427 0.0064858883 -0.016554981 -0.009268479 -0.019588996 -0.020836456 -0.01751609
0.004958896 0.008483371 0.0023699806 -0.01777552 0.008252768 -0.016054142 -0.014475157 -0.018142372
0.007164456 -0.02141148 -0.00469077 -0.0076910327 -0.016987743 0.004398993 -0.023774855 0.006991099
0.0040548593 -0.0178008 0.010775968 -0.015580371 -0.0020052567 -0.013944755 -0.0058036447 0.015030446
-0.01734825 0.01776041 -0.008865191 -0.024325453 -0.008663943 -0.014681424 0.018652437 0.011460457
-0.027439594 0.014876402 -0.0044756504 -0.022730574 -0.015633987 -0.02051973 -0.0138427615 -0.019223996
-0.0068834615 -0.02186928 0.0022084217 0.020032387 0.02252459 -0.03341508 0.018677104 -0.023409275
-0.01924711 -0.018337095 -0.019169867 -0.018016208 0.019629207 0.014985044 -0.014544543 -0.0050115143
-0.022975357 0.013626741 0.013394202 -0.03026909 -0.004217766 0.002014558 -0.024471046 0.016548913
-0.01602711 0.010049282 0.008589186 0.014070438 -0.026151286 -0.022597965 -0.022032347 -0.024085322
