Resources/NNModels/10-30-20/kinect_model.onnx (onnx, 44321 bytes, 4 tensors)

StatefulPartitionedCall/sequential_3/dense_7/MatMul/ReadVariableOp:0 f4 [128, 71]
0	0xbd92bc05	-0.07164768
1	0xbe2388ab	-0.15970103
2	0x3ba85dc3	0.0051381304
3	0xbc3d7a9e	-0.011564879
4	0xbd8ba576	-0.068186685
5	0xbcdc3ce0	-0.026884496
6	0xbe17bcca	-0.14818111
7	0xbe0ddc81	-0.13853647
8	0x3e037ab4	0.12839776
9	0xbde926bc	-0.11384341
10	0xbe06a895	-0.13150246
11	0x3b07a0ed	0.0020695284
12	0x3cf7df31	0.030257793
13	0x3df2124f	0.11819898
14	0x3da114c5	0.078652896
15	0xbda6d6c0	-0.08146429
16	0xbd8106dc	-0.063001364
17	0x3decf0e7	0.11569386
18	0xbe0754e3	-0.13215975
19	0xbdc2d59b	-0.09513398
20	0x3e426f89	0.1898786
21	0xbd8609d6	-0.06544845
22	0xbdc37ad9	-0.09544916
23	0x3b41f289	0.0029594025
24	0xbe0673f2	-0.13130167
25	0x3b6c1619	0.0036023913
26	0xbdc81f58	-0.09771603
27	0xbdc0ae4a	-0.09408243
28	0x3d0f0114	0.034913138
29	0xbd7a8306	-0.06116011
30	0xbe17af01	-0.14812852
31	0xbdd00a80	-0.10158253
32	0xbd44f741	-0.048087362
33	0xbded5cff	-0.11590003
34	0xbe0e89f1	-0.13919808
35	0x3d16a052	0.036773987
36	0x3e1c7471	0.15278794
37	0xbce9b1c6	-0.028527152
38	0x3bea8bd6	0.007157783
39	0xbddd29b0	-0.10798967
40	0x3db38230	0.08765066
41	0x3de59df6	0.11211769
42	0xbd374651	-0.044744793
43	0xbd07ff69	-0.033202562
44	0x3d154534	0.03644295
45	0x3da76585	0.0817366
46	0xbda4766a	-0.08030398
47	0xbd902150	-0.07037604
48	0x3db76e42	0.08956577
49	0xbde2d8a3	-0.110764764
50	0xbdc134bc	-0.094338864
51	0x3e2aa3e9	0.1666409
52	0x3d4e1b7e	0.050319187
53	0xbd56f184	-0.05247642
54	0x3d9bb065	0.07602004
55	0x3d615c3c	0.055019602
56	0x3c0d7359	0.008633458
57	0xbd6d6910	-0.057961524
58	0x3b4682ec	0.0030290438
59	0x3d076a66	0.033060454
60	0x3db23c33	0.08702888
61	0xbe25a52d	-0.16176291
62	0x3d9b4eca	0.07583387
63	0x3e0cec8b	0.13762109
64	0xbdfc9b03	-0.12334254
65	0xbd8753a6	-0.066077515
66	0x3de76443	0.1129842
67	0xbd7e7731	-0.06212539
68	0xbba9ad18	-0.005178105
69	0xbe094123	-0.13403754
70	0xbe23c7ca	-0.15994182
71	0x3a48d4c8	0.00076611014
72	0xbd53d388	-0.051715404
73	0x3df32c90	0.11873734
74	0xbe07925a	-0.13239422
75	0x3c1b0d80	0.009463668
76	0xbe175d66	-0.14781722
77	0x3e1c6836	0.15274128
78	0xbe16d9d8	-0.14731538
79	0xbdc31986	-0.095263526
80	0xbe22b372	-0.15888765
81	0x3e050cfb	0.12993233
82	0x3e197aa8	0.14988196
83	0x3d425c49	0.04745129
84	0x3b1e80eb	0.0024185728
85	0xbe0dcfd2	-0.13848808
86	0xbd16e41f	-0.036838647
87	0xbe010aa6	-0.12601718
88	0x3db8f61f	0.09031319
89	0xbd79c18d	-0.0609756
90	0x3e2cd88d	0.16879483
91	0x3c959b76	0.018262606
92	0x3d97c76a	0.07411082
93	0x3d8b8b56	0.068136856
94	0xbcd18a92	-0.02557877
95	0x3cf3b809	0.02975084
96	0xbd85cc53	-0.065331124
97	0xbd3cb207	-0.046068218
98	0x3dd75823	0.105148576
99	0xbcb2f5cc	-0.02184572
100	0xbd705d74	-0.058682874
101	0x3e2e049c	0.16993946
102	0x3e46995b	0.19394438
103	0xbda5f0fe	-0.08102606
104	0xbc8de46e	-0.017320838
105	0xbd82bc74	-0.06383601
106	0xbd81f8ff	-0.0634632
107	0xbe06c327	-0.13160382
108	0xbc91a7e0	-0.017780244
109	0xbe0ef212	-0.1395953
110	0xbc2511cc	-0.010075044
111	0xbce43309	-0.027856367
112	0xbb86032e	-0.0040897345
113	0x3e0483ce	0.12940904
114	0x3d3c256a	0.04593412
115	0xbd806f38	-0.06271213
116	0xbe025064	-0.12725979
117	0xbd73130a	-0.05934433
118	0xbdc02f5e	-0.093840346
119	0x3d86c93b	0.065813504
120	0x3e0a2c3a	0.13493434
121	0xbdcd6109	-0.100282736
122	0xbb907b5e	-0.0044092378
123	0xbe1143d1	-0.14186026
124	0xbd90d608	-0.07072073
125	0x3e064230	0.13111186
126	0x3e2f1a55	0.17099889
127	0x3da228e1	0.07917953
128	0x3e49af85	0.19695862
129	0x3d460015	0.048339922
130	0xbd0feddc	-0.03513895
131	0xbdb77937	-0.08958667
132	0x3d84317c	0.06454751
133	0x3e09ede7	0.13469659
134	0xbbbf207c	-0.00583273
135	0x3da3b6e7	0.0799387
136	0x3bbd2d82	0.005773247
137	0xbaf3097b	-0.0018542254
138	0x3de2a401	0.110664375
139	0xbe1a805e	-0.1508803
140	0xbdb0226a	-0.08600314
141	0x3e0d7b07	0.13816462
142	0xbdb2f4ef	-0.087381236
143	0xbe1b7461	-0.15181114
144	0x3ddaa201	0.10675431
145	0x3df45e0f	0.11932003
146	0x3de7d79d	0.11320422
147	0xbe1c7f66	-0.15282974
148	0xbd8c2fcb	-0.06845053
149	0x3cb927a6	0.022601914
150	0xbdb1455d	-0.08655808
151	0x3cbfa59d	0.0233944
152	0xbd81868d	-0.06324492
153	0x3e39d53b	0.18147747
154	0xbe20690a	-0.15665069
155	0xbdc0f684	-0.09422019
156	0xbcfa78f8	-0.03057526
157	0x3db560d2	0.08856358
158	0x3e3bd6be	0.18343636
159	0xbda7d532	-0.08194961
160	0xbd403dcc	-0.046933934
161	0x3e109a1b	0.14121287
162	0xbd5352e7	-0.051592734
163	0xbe33d581	-0.17561914
164	0x3de1fda4	0.11034706
165	0xbdfa51dc	-0.12222645
166	0x3e2f5b6b	0.17124717
167	0x3c8c302b	0.017112812
168	0xbd602fb6	-0.054733
169	0x3d7d8e83	0.061903488
170	0xbcfa965f	-0.03058928
171	0x3d861211	0.06546415
172	0x3e3032bb	0.17206852
173	0x3dbc7efa	0.09203906
174	0xbc8a3b02	-0.01687384
175	0x3d93ae2c	0.07210955
176	0x3d7f8999	0.062387083
177	0xbd877a6c	-0.06615147
178	0xbe190478	-0.14943111
179	0x3d9327ff	0.07185363
180	0x3c541da6	0.012946522
181	0xbe18ef29	-0.14934982
182	0x3e37a113	0.17932539
183	0xbd54540b	-0.051837962
184	0xbd253c57	-0.040340748
185	0xbdf4d7d5	-0.11955229
186	0xbdd0bf5f	-0.10192751
187	0xbdc58947	-0.09645324
188	0x3dff9ec2	0.124814525
189	0x3dd03204	0.1016579
190	0x3e189df8	0.1490401
191	0x3c66a69a	0.014077807
192	0xbe0832b1	-0.13300587
193	0x3e12046e	0.14259502
194	0x3d683840	0.05669427
195	0x3da4483f	0.08021592
196	0x3e0c3af8	0.1369437
197	0xbdbc867b	-0.092053376
198	0xbd10d8a8	-0.03536287
199	0xbd28a033	-0.041168403
200	0x3bcddea6	0.0062826453
201	0xbda4c22e	-0.08044849
202	0xbe005947	-0.12534057
203	0x3d63627c	0.055513844
204	0x3bfd770f	0.00773514
205	0xbdd49012	-0.10379042
206	0xbbb0a1e2	-0.0053903917
207	0xbe0fb8c4	-0.14035326
208	0xbe10831b	-0.14112513
209	0xbccc9595	-0.02497367
210	0xbb1d686f	-0.0024018546
211	0x3b5a7d14	0.0033338713
212	0xbdde2570	-0.108469844
213	0x3d36d891	0.044640128
214	0x3dc44e9f	0.09585308
215	0x3d90fba4	0.07079247
216	0x3e14f76a	0.14547506
217	0xbd30a796	-0.043128572
218	0xbdd4b265	-0.103855886
219	0xbc6cd8c5	-0.014455979
220	0xbdc5676e	-0.09638868
221	0x3dffe335	0.12494508
222	0xbe0cc1f4	-0.13745862
223	0xbd19ee54	-0.037580803
224	0xbb751b81	-0.0037400427
225	0xbe2ab8c5	-0.16672046
226	0xbe1c8135	-0.15283664
227	0xbd17010e	-0.03686624
228	0x3df79996	0.12089841
229	0xbdc029c0	-0.09382963
230	0x3e06c5ec	0.13161439
231	0x3de57a16	0.11204927
232	0x3e479610	0.19490838
233	0x3e25e3ad	0.16200133
234	0xbcca799d	-0.024716193
235	0x3dc86b5e	0.09786104
236	0xbc913adc	-0.017728262
237	0xbe0b836a	-0.13624349
238	0xbd8150d3	-0.06314244
239	0xbdc5d39c	-0.09659502
240	0x3da906af	0.08253228
241	0x3c5d634a	0.013512442
242	0x3dee705e	0.11642526
243	0x3d227923	0.039666306
244	0x3d9e41e3	0.07727411
245	0xbd70465a	-0.058660842
246	0x3e0f3ad1	0.1398728
247	0x3d1a5129	0.037675057
248	0xbcbfd681	-0.023417713
249	0x3c442f03	0.011974099
250	0xbe04fe2b	-0.12987582
251	0x3de7737d	0.113013245
252	0x3deed2c1	0.11661292
253	0xbdc53ced	-0.09630761
254	0x3e1ac5bf	0.15114497
255	0x3e2feb4a	0.171796

StatefulPartitionedCall/sequential_3/dense_7/BiasAdd/ReadVariableOp:0 f4 [71]
0	0x3bb4f494	0.00552232
1	0xbb4bac3c	-0.0031078001
2	0x3c027e39	0.007964664
3	0x3cd441d7	0.025910301
4	0x3a9695f3	0.001148878
5	0x3c2b37d2	0.01045032
6	0xbbf43ce2	-0.007453547
7	0x3cdafe32	0.026732538
8	0xbbc47f4d	-0.0059966207
9	0xbbb844cb	-0.005623435
10	0x3b7fb6b2	0.0039018807
11	0x3ce836c3	0.028346425
12	0xbc2664ae	-0.01015584
13	0xbbbf838d	-0.0058445395
14	0x3ac48f21	0.0014996269
15	0x3ce64d7d	0.028113121
16	0x3caa3730	0.020778269
17	0xbb61aae5	-0.0034434136
18	0x3bd35a0d	0.006449944
19	0x3cc61f25	0.024184773
20	0x3cb402cf	0.021973995
21	0xbbfaf283	-0.007658304
22	0xbcac4928	-0.021030977
23	0x3cfdc6f8	0.030978665
24	0x3c2420c0	0.010017574
25	0x3c179b7d	0.00925338
26	0xba890960	-0.0010455064
27	0x3c9dda57	0.019269152
28	0xbb7f2029	-0.003892908
29	0xbbdf7f62	-0.006820605
30	0x3baf08ca	0.005341624
31	0x3cc80e20	0.024420798
32	0xbbbdb3f1	-0.005789273
33	0xbbca49de	-0.0061733564
34	0xbb9324e0	-0.00449048
35	0x3c812d8e	0.015768792
36	0x3c0342ca	0.008011529
37	0xbc9db9bd	-0.019253606
38	0xbb858f4e	-0.004075921
39	0x3c853685	0.016261349
40	0x3c112646	0.008859223
41	0xbc4b5625	-0.012410675
42	0x3c54d797	0.012990854
43	0x3c5cf239	0.013485485
44	0xbba40564	-0.0050055254
45	0xbc4af286	-0.012386924
46	0xbbfaa243	-0.0076487376
47	0x3cafd347	0.02146305
48	0x3b47c26c	0.0030480875
49	0x3cb0f937	0.02160321
50	0x3c98a934	0.01863537
51	0x3cc00453	0.023439562
52	0xb81827e6	-3.6276782e-05
53	0x3cced46d	0.025247777
54	0x3a16b932	0.0005749642
55	0x3bf02d1b	0.0073295957
56	0x3946f5aa	0.00018974268
57	0x3cd560bc	0.026047103
58	0xbc0327b8	-0.008005075
59	0x3b108c45	0.0022056263
60	0xbbd63fec	-0.006538382
61	0x3b9c702f	0.0047741155
62	0xbb6fa029	-0.0036563969
63	0x3d046827	0.03232589
64	0x3bbce871	0.005765014
65	0x3bcf2bc9	0.0063223583
66	0x3b75ee74	0.0037526162
67	0x3cc2cc92	0.023779187
68	0xbb8c525e	-0.00428228
69	0x3ce7272f	0.028216926
70	0xbbe12392	-0.0068706954

StatefulPartitionedCall/sequential_3/dense_6/MatMul/ReadVariableOp:0 f4 [10, 128]
0	0x3c373c90	0.011183873
1	0xbd85022c	-0.06494555
2	0xbd7fd049	-0.062454496
3	0x3d9a67bf	0.07539319
4	0xbd100f0e	-0.035170607
5	0x3e010026	0.12597713
6	0xbcfece6c	-0.031104289
7	0x3bd7b319	0.0065826294
8	0x3e0a35cd	0.13497086
9	0x3e483e2c	0.19554967
10	0xbda525f8	-0.080638826
11	0xbd295d66	-0.041348837
12	0xbd876d22	-0.06612612
13	0x3e306a1e	0.1722798
14	0x3e30e568	0.17275012
15	0xbd0c4ab5	-0.034250934
16	0xbdda0e96	-0.10647313
17	0x3cac15a4	0.021006413
18	0x3d812b2f	0.06307065
19	0x3e01f745	0.12691982
20	0xbe089b46	-0.13340482
21	0x3e367661	0.17818595
22	0x3dc43787	0.095809035
23	0xbe33c22d	-0.17554541
24	0x3db4af63	0.08822515
25	0xbc47f5c3	-0.01220459
26	0xbbfe8487	-0.0077672633
27	0x3d2573b1	0.040393535
28	0x3d717766	0.058951758
29	0x3e10f0d2	0.14154366
30	0xbe70827c	-0.23487276
31	0x3d8ecc85	0.06972603
32	0x3d9fd11c	0.07803556
33	0x3e21f736	0.1581696
34	0x3d986224	0.07440594
35	0x3d87ea5f	0.066364996
36	0x3da17785	0.07884125
37	0xbd05ba6d	-0.032648493
38	0x3e38472c	0.179959
39	0xbcb1ee01	-0.021719934
40	0x3c360d13	0.011111516
41	0xbc1e5a00	-0.009665012
42	0xbe551171	-0.20807435
43	0x3dac1776	0.08402912
44	0xbd68acec	-0.056805536
45	0xbc6b9732	-0.0143793095
46	0x3e4231d7	0.18964325
47	0xbe05fc0f	-0.13084434
48	0xbe3ba123	-0.18323188
49	0x3daabfde	0.08337377
50	0xbda78c25	-0.08181027
51	0xbdc9f89c	-0.098618716
52	0x3d55fabd	0.052241076
53	0x3e7e61ab	0.24841945
54	0xbda26d4c	-0.07931003
55	0xbd41ea94	-0.04734285
56	0xbdc3f256	-0.09567706
57	0x3dd354e2	0.103189245
58	0x3db13bb1	0.08653963
59	0x3ccbb557	0.024866743
60	0xbe03cc71	-0.12870957
61	0x3e0b5a06	0.1360856
62	0xbdae0fd0	-0.0849911
63	0xbcfbedb1	-0.030752989
64	0x3de0f8a6	0.10984926
65	0x3e1e319f	0.15448616
66	0xbcc9a1cd	-0.024613285
67	0xbe0e8f57	-0.13921867
68	0x3d54a4cd	0.05191498
69	0x3dcbbabe	0.099477276
70	0x3db35fa6	0.08758478
71	0xbc1ca541	-0.009560884
72	0x3e4de966	0.20108566
73	0xbdc7aca2	-0.09749724
74	0x3c458f7e	0.012058137
75	0x3e15ebae	0.14640686
76	0x3de6e9bd	0.11275051
77	0x3d14221d	0.036165345
78	0x3e00ae57	0.12566505
79	0x3e1937e4	0.14962727
80	0x3e00c415	0.125748
81	0x3e155584	0.14583403
82	0x3d9cb64d	0.076519586
83	0xbdbf4dee	-0.09341036
84	0x3e37a40d	0.17933674
85	0xbe3a9d33	-0.18224029
86	0xbdb0b014	-0.08627334
87	0x3dc4b155	0.09604136
88	0x3e2f9801	0.17147829
89	0x3e4a0372	0.19727877
90	0xbd1ad110	-0.037797034
91	0x3dc53a9b	0.09630319
92	0x3ddc0f22	0.10745074
93	0x3c9af043	0.018913394
94	0xbdf23510	-0.11826527
95	0x3dfd903e	0.12381028
96	0xbe07ae44	-0.13250071
97	0x3dd4dde5	0.103938855
98	0x3d990989	0.07472522
99	0xbe063a16	-0.13108096
100	0xbc13a21a	-0.009010816
101	0xbdc1efab	-0.09469541
102	0x3dff4a34	0.12465325
103	0x3d9797e9	0.074020214
104	0xbdd82ba9	-0.105552025
105	0xbb416857	-0.0029511654
106	0x3d6a2706	0.057166122
107	0x3da62fc2	0.08114578
108	0xbd78cac8	-0.060740262
109	0x3dd61b10	0.104543805
110	0x3d9d7451	0.07688201
111	0x3e446b05	0.1918145
112	0x3e67a6d5	0.22622235
113	0x3c9b8e12	0.018988643
114	0xbdd540eb	-0.10412773
115	0x3e26b7bb	0.16281025
116	0xbdc3dda8	-0.09563762
117	0xbd7d9a39	-0.061914656
118	0x3e4138bf	0.18869303
119	0x3e1f4dae	0.15556976
120	0xbd01d834	-0.031700328
121	0xbe6dee61	-0.23235466
122	0x3dd393b8	0.103309095
123	0xbcd87a58	-0.026425526
124	0xbe53680c	-0.2064516
125	0xbe293747	-0.16524993
126	0xbcc6160a	-0.02418043
127	0xbc5be8a2	-0.013422163
128	0x3df98732	0.121839896
129	0xbe4b284b	-0.1983959
130	0xbdfee93d	-0.124468304
131	0x3e3aa806	0.18228158
132	0xbe0f01b8	-0.139655
133	0xbd9c4a34	-0.076313406
134	0xbdb73f39	-0.08947606
135	0xbe224f6e	-0.15850613
136	0xbd6b0ed7	-0.0573872
137	0x3e035d29	0.12828507
138	0x3d24db30	0.040248096
139	0x3d24ddde	0.04025065
140	0xbe1af9db	-0.15134375
141	0x3d162671	0.036657754
142	0xbdd2f195	-0.10299984
143	0x3e2c6312	0.16834667
144	0xbd7eaad8	-0.062174648
145	0xbe0fc2d5	-0.14039166
146	0xba3e3f91	-0.0007257397
147	0xbd0a27a8	-0.033729225
148	0xbd515c59	-0.05111346
149	0xbd67f4b5	-0.056629855
150	0x3d647bde	0.05578219
151	0x3c89ffe5	0.016845653
152	0x3bad2e38	0.0052850507
153	0x3dc7d163	0.09756734
154	0x3d100c3f	0.03516793
155	0xbd5cafa1	-0.05387843
156	0x3e08a53b	0.1334428
157	0xbc1c3c54	-0.009535868
158	0xbda547b8	-0.0807032
159	0x3e20ede7	0.15715753
160	0x3d52d3b5	0.05147143
161	0x3e397b16	0.1811336
162	0xbd789097	-0.060684767
163	0x3d892090	0.06695664
164	0x3834eaef	4.3134143e-05
165	0x3e3bc586	0.18337068
166	0xbe293ac9	-0.16526331
167	0xbda7638a	-0.081732824
168	0xbd5ad190	-0.05342251
169	0xbe5016a2	-0.20321134
170	0x3b1e057d	0.0024112158
171	0xbdfbc387	-0.12293153
172	0xbd6e8ab2	-0.05823774
173	0xbe75e29d	-0.24012227
174	0x3e7037bc	0.23458761
175	0x3e334033	0.17504959
176	0xbd9cc3e1	-0.076545484
177	0x3d3d9f33	0.046294402
178	0xb72a6880	-1.015712e-05
179	0xbd937307	-0.07199674
180	0xbd898b0f	-0.067159764
181	0xbce3b013	-0.02779392
182	0x3e361239	0.17780389
183	0xbe36724f	-0.17817043
184	0xbe2ef69f	-0.17086266
185	0x3e031d26	0.12804088
186	0x3d8b2855	0.06794802
187	0xbe4114b0	-0.18855548
188	0xbe08a59c	-0.13344425
189	0x3d4dd876	0.05025526
190	0x3dc3ae5a	0.09554739
191	0xbcf9145e	-0.03040522
192	0x3e190297	0.14942394
193	0x3d924376	0.071417734
194	0xbe259612	-0.16170529
195	0x3d8e2e4a	0.06942423
196	0xbd333cd6	-0.04375919
197	0xbe6a076d	-0.22854395
198	0x3cafc80b	0.021457693
199	0xbdd6fcbf	-0.10497426
200	0x3e2b960d	0.16756459
201	0xbd1e2b72	-0.03861565
202	0x3e3cb159	0.18427028
203	0x3e291147	0.16510497
204	0x3de7fd57	0.113276176
205	0x3db2e7d5	0.08735625
206	0xbd57b78d	-0.052665282
207	0x3e33ff8b	0.1757795
208	0xbe12414b	-0.1428272
209	0x3e362447	0.17787276
210	0x3d87394b	0.06602725
211	0xbdda352a	-0.106546715
212	0x3df536e8	0.11973363
213	0xbd8f328c	-0.06992063
214	0x3d678535	0.05652352
215	0x3e18ccc5	0.14921863
216	0xbd8701c3	-0.06592133
217	0x3e315718	0.1731838
218	0x3e1891c1	0.1489935
219	0x3d041448	0.032245904
220	0x3d435cd5	0.047695953
221	0x3df17315	0.11789528
222	0x3dca7e62	0.09887387
223	0xbad44332	-0.0016194342
224	0xbd286b30	-0.041117847
225	0x3e3285e3	0.17433886
226	0xbd3c1cc9	-0.04592589
227	0x3ce2c76d	0.027682984
228	0x3c523e69	0.012832263
229	0x3e0e0bfd	0.1387176
230	0xbe19805f	-0.14990376
231	0x3d1ad84c	0.037803933
232	0x3e0d50fa	0.13800421
233	0x3d1e8d99	0.038709257
234	0x3de4ddf8	0.1117515
235	0xbe3827a4	-0.17983872
236	0x3e060871	0.13089158
237	0xbd498176	-0.04919573
238	0xbe02e379	-0.12782086
239	0xbde03b0e	-0.10948764
240	0xbc2e6275	-0.010643591
241	0xbe12f143	-0.14349847
242	0x3dd8fbed	0.10594926
243	0xbe1ef457	-0.15522896
244	0xbe2acdd9	-0.16680087
245	0xbcfdbe63	-0.030974573
246	0x3e2a1d0f	0.16612647
247	0x3e1dd63a	0.15413752
248	0x3da0023c	0.07812926
249	0xbdc9ddb2	-0.09856738
250	0x3e3be5e5	0.18349417
251	0xbe2e2b6b	-0.1700875
252	0xbc8688c5	-0.016422639
253	0x3db99a27	0.09062605
254	0xbe1af36c	-0.1513192
255	0xbdf4a43c	-0.11945388

StatefulPartitionedCall/sequential_3/dense_6/BiasAdd/ReadVariableOp:0 f4 [128]
0	0xbcba5757	-0.022746725
1	0xbcd510b8	-0.026008949
2	0x3be36823	0.0069399043
3	0x3cbad8b8	0.022808418
4	0xbc176434	-0.009240199
5	0x3cac10a4	0.021004029
6	0x3d0d7858	0.034538597
7	0x3c7d58c8	0.015463062
8	0xbcd1f258	-0.025628254
9	0xbca041fc	-0.019562714
10	0xbc676765	-0.014123772
11	0x3c1817ae	0.009282989
12	0xbb2e2852	-0.0026574326
13	0xbb92be89	-0.00447828
14	0x3d08fd0b	0.033444446
15	0xbc3e844b	-0.011628221
16	0x3c87c53b	0.016573539
17	0xbc52c846	-0.012865132
18	0x3cac74c3	0.02105177
19	0x3ce6ebbe	0.028188583
20	0xbc98134f	-0.018563895
21	0xbb10fd98	-0.002212381
22	0x3d1156b7	0.03548309
23	0x3c80bfd7	0.015716476
24	0xbcbe3957	-0.023220701
25	0x3d223e9f	0.0396105
26	0x3bea43d6	0.0071492
27	0xbc8b9ac5	-0.017041573
28	0xbc9bc9eb	-0.01901718
29	0x3ce6fd65	0.028197
30	0xbc2614f5	-0.0101368325
31	0x3d108aa6	0.035288475
32	0x3cd53761	0.026027383
33	0xbcbff05c	-0.023430042
34	0x3b02ab16	0.00199384
35	0x3d194e7b	0.03742836
36	0xbb9f9b33	-0.004870796
37	0x3d1b92f2	0.037981935
38	0xbcb3bb5d	-0.021939928
39	0x3bee06e6	0.007264006
40	0x3c8edc57	0.01743905
41	0xbc94a42f	-0.018144695
42	0x3d0cb0bb	0.03434823
43	0xbcb15054	-0.021644749
44	0x3d0cdc2e	0.034389667
45	0xbd06b688	-0.03288892
46	0x3d037f53	0.032103848
47	0x3c98a25d	0.018632108
48	0x3bb231b6	0.005438055
49	0x3cd67e47	0.02618326
50	0x3cbcb5fe	0.023036
51	0xbc9dc15a	-0.019257236
52	0xbc91b2be	-0.017785426
53	0xbccc3ec9	-0.024932282
54	0xbcb2cf6a	-0.021827418
55	0x3c6edeac	0.014579456
56	0x3c82f339	0.015985118
57	0xbc8ef400	-0.017450333
58	0x3ccdb792	0.025111947
59	0xbcde8eb1	-0.02716765
60	0xbca6cc56	-0.020361107
61	0x3c9e7ae6	0.019345712
62	0x3caf80f0	0.021423787
63	0x3d0a9263	0.03383101
64	0x3c4081f8	0.011749737
65	0xbcda1aff	-0.0266242
66	0x3ce7298f	0.028218059
67	0x3cbf3f16	0.023345511
68	0xbcbb46a7	-0.022860838
69	0xbc7822c1	-0.015145005
70	0x3ba26098	0.0049553625
71	0xbcd8c05b	-0.02645891
72	0xbcd5d9d7	-0.02610485
73	0xbd014aed	-0.031565595
74	0x3cd7863c	0.026309125
75	0xbd17d6f1	-0.03707022
76	0xbcae344e	-0.021265175
77	0xbcaf2146	-0.02137817
78	0xbcaff480	-0.021478891
79	0x3cf0aeeb	0.029380282
80	0xba7d0919	-0.000965254
81	0xbc82744d	-0.015924597
82	0x3aaec6cb	0.0013334391
83	0x3cf0ca30	0.029393286
84	0xbca1ac13	-0.019735372
85	0x3c979b91	0.018506797
86	0x3cff53a4	0.031167813
87	0xbc6135ea	-0.013745764
88	0xbcac96c0	-0.021067977
89	0xbcaefc68	-0.021360591
90	0x3d1f2b4f	0.03885966
91	0xbce408c4	-0.027836211
92	0x39d4e1b2	0.00040603947
93	0x3d24303b	0.04008506
94	0xbc9fc862	-0.01950473
95	0xbcc761d8	-0.024338648
96	0x3d093c35	0.033504684
97	0xbcc6d790	-0.02427271
98	0xbcded10a	-0.027199287
99	0xbbfa94c7	-0.00764713
100	0xbca1ec8c	-0.019766115
101	0x3cb111c2	0.021614913
102	0x3ccf1a42	0.025281075
103	0x3d010d13	0.03150661
104	0xbc301989	-0.010748276
105	0x3cfd059b	0.030886462
106	0xbcc1c834	-0.023655035
107	0xbcd0ba0f	-0.025479345
108	0x3d10862a	0.0352842
109	0xbbeff494	-0.007322857
110	0x3cdc391c	0.0268827
111	0x3d03db7c	0.03219174
112	0xbc70da95	-0.0147005515
113	0xbce34b2b	-0.027745804
114	0x3cf8fb8e	0.030393388
115	0xbc82ea9c	-0.015981011
116	0x3cc5ace7	0.024130298
117	0xbd055316	-0.03254994
118	0xbc81433c	-0.01577913
119	0x3c121cf4	0.008918036
120	0x3c874674	0.016513087
121	0xbcc6e7f0	-0.024280518
122	0xbce0d1d6	-0.027443808
123	0x3cd7690e	0.026295211
124	0x3cdb796f	0.026791302
125	0xbcf61bf2	-0.030042622
126	0xbcfc4c4c	-0.0307981
127	0xbcd7662d	-0.026293838
