Resources/NNModels/10-30-20/leap_model.onnx (onnx, 19700 bytes, 4 tensors)

StatefulPartitionedCall/sequential_10/dense_21/MatMul/ReadVariableOp:0 f4 [32, 124]
0	0xbd927c9c	-0.071526736
1	0xbda7e0d0	-0.081971765
2	0x3ba55349	0.0050453288
3	0x3cd35051	0.025795134
4	0x3d7dabd6	0.061931454
5	0xbd451653	-0.048116993
6	0xbe1933ff	-0.14961241
7	0xbd59beaa	-0.053160347
8	0xbe08da8d	-0.1336462
9	0x3e0d3456	0.13789496
10	0xbd7d7638	-0.06188032
11	0x3d5a0c3d	0.053234328
12	0x3dce14c7	0.10062557
13	0x3d2c8574	0.04211946
14	0x3e26f00c	0.16302508
15	0x3d9037af	0.07041871
16	0xbe23d46f	-0.15999006
17	0x3cba97cb	0.022777459
18	0xbc1a356a	-0.009412149
19	0xbe2c4fd5	-0.16827329
20	0x3d358f87	0.04432633
21	0xbcd6d5a1	-0.026224913
22	0xbe404749	-0.18777193
23	0x3dcb11e8	0.09915525
24	0xbcd6816b	-0.026184758
25	0xbde0f0ad	-0.10983405
26	0xbd0d5eaa	-0.034514107
27	0x3d00dc81	0.03146029
28	0x3d5278c2	0.051384695
29	0xbe04f6df	-0.12984799
30	0xbbb54dbd	-0.0055329488
31	0xbca10dda	-0.019659925
32	0xbdd11795	-0.10209576
33	0xbe0c3a33	-0.13694076
34	0x3e1008ac	0.14065808
35	0x3d118d0f	0.035534915
36	0x3db14ae5	0.08656863
37	0x3e25bd2b	0.16185443
38	0xbdbd094f	-0.09230291
39	0x3dd9d23e	0.10635804
40	0x3da9f4a7	0.08298617
41	0xbe0c0767	-0.13674699
42	0x3d163c24	0.03667845
43	0xbe3cfc2d	-0.18455572
44	0x3cc046a4	0.023471184
45	0x3da76395	0.08173291
46	0xbdf29dc5	-0.118464984
47	0x3e46ab59	0.19401301
48	0xbd38fb56	-0.045161568
49	0xbe256492	-0.16151646
50	0x3e1ba524	0.15199715
51	0x3e527b39	0.20554818
52	0x3d8ffa0d	0.07030115
53	0x3e376b81	0.17912103
54	0xbe0e3fc0	-0.13891506
55	0xbdfade42	-0.122494236
56	0x3d0b9da1	0.034085874
57	0x3d3948e1	0.04523552
58	0x3e02314d	0.1271412
59	0xbce3c346	-0.027803075
60	0xbdbcd66e	-0.09220587
61	0x3d1f6cd7	0.038922157
62	0x3db292f3	0.087194346
63	0x3dbf65c2	0.09345581
64	0x3e04caa9	0.12967934
65	0xbd2f013d	-0.04272579
66	0x3e1ecee6	0.15508613
67	0xbdc0e6b5	-0.09419004
68	0x3ca8dd49	0.02061333
69	0x3e2ab0bc	0.16668981
70	0x3d88ca3f	0.066792004
71	0xbe1220c9	-0.14270319
72	0x3da150d0	0.07876742
73	0xbda620aa	-0.08111699
74	0x3e1d2c8b	0.15349023
75	0x3e40f5f9	0.18843831
76	0x3e587e69	0.21141972
77	0xbe0f68d3	-0.14004831
78	0xbda11ff7	-0.07867425
79	0x3e0f9222	0.14020589
80	0xbe16f978	-0.14743602
81	0xbddcf56c	-0.10788998
82	0xbe237709	-0.15963377
83	0xbdd0e853	-0.10200562
84	0x3c932fc8	0.01796712
85	0x3db9adac	0.090663284
86	0x3e28188a	0.16415611
87	0x3dd8ec52	0.105919495
88	0xbdff6a1f	-0.12471413
89	0xbe025128	-0.12726271
90	0xbe1c5bfd	-0.15269466
91	0x3d01163f	0.031515356
92	0x3cb62407	0.022233976
93	0xbd90a57a	-0.07062812
94	0xbdb9733d	-0.09055183
95	0x3e0fe8b2	0.1405361
96	0xbe134acc	-0.14384001
97	0xbd9e960a	-0.077434614
98	0xbe2a76cd	-0.16646881
99	0x3e222590	0.15834641
100	0xbb31188c	-0.0027022688
101	0xbd718eca	-0.058974065
102	0xbe00e3f0	-0.12586951
103	0xbb76f4fa	-0.0037682639
104	0x3ddf1b65	0.10893897
105	0xbc985e3c	-0.018599622
106	0x3dc69380	0.09696102
107	0x3dcce25b	0.100041114
108	0x3e1ed79d	0.15511937
109	0xbd2fcd2c	-0.042920277
110	0x3e14a51e	0.14516112
111	0xbd64ba92	-0.05584199
112	0xbe29cead	-0.16582747
113	0xbe2b637b	-0.16737168
114	0xbdf0d1d5	-0.11758772
115	0x3dd0efdf	0.10202002
116	0x3dbf61e3	0.09344842
117	0x3e02135b	0.12702696
118	0xbe2f4b98	-0.1711868
119	0xbdc1a259	-0.094547935
120	0x3de06bc6	0.10958056
121	0x3e082424	0.13295037
122	0x3e178131	0.14795376
123	0x3e1bd02d	0.15216132
124	0xbd7bda78	-0.061487645
125	0xbcf7c8fc	-0.030247204
126	0xbc1e1671	-0.009648905
127	0x3dba303a	0.0909123
128	0x3dcdebd3	0.100547455
129	0x3cab87a3	0.0209387
130	0x3c938fba	0.01801287
131	0x3dcde4e8	0.10053426
132	0x3cf4d44c	0.029886387
133	0x3d2ad92a	0.04171101
134	0x3e23eefd	0.16009136
135	0xbe07e224	-0.1326986
136	0xbe06c2a0	-0.13160181
137	0xbd803d6b	-0.062617145
138	0x3e051bff	0.12998961
139	0x3dd505da	0.10401507
140	0x3dde2833	0.10847511
141	0xbdeada4a	-0.114674166
142	0x3e0e4646	0.13893995
143	0xbd053935	-0.03252526
144	0xbd4f363b	-0.050588828
145	0xbe3757e5	-0.17904623
146	0xbd8e411b	-0.06946012
147	0x3dfb07f9	0.1225738
148	0x3d9b9a35	0.07597772
149	0xbcda8204	-0.026673324
150	0xbe091355	-0.13386281
151	0xbd2b6474	-0.041843846
152	0x3d2d961e	0.04237949
153	0x3cb7d02f	0.022438137
154	0xbd0b7cb0	-0.03405446
155	0x3d3e1223	0.046404015
156	0xbdfd887e	-0.123795494
157	0x3d9b21a9	0.075747795
158	0xbe467305	-0.19379814
159	0x3d63b3d4	0.05559142
160	0x3e2808a7	0.1640955
161	0x3e00c804	0.125763
162	0xbe29bb10	-0.16575265
163	0xbd60fd23	-0.05492891
164	0x3c0bc608	0.008531101
165	0x3e342fbd	0.17596336
166	0xbda81e7c	-0.082089394
167	0x3b7bd991	0.003842924
168	0x3da8864a	0.082287386
169	0x3dc37d0e	0.09545337
170	0x3d3438ce	0.043999486
171	0x3db4e0e5	0.08831958
172	0xbe27b484	-0.16377455
173	0xbe2a8ed0	-0.16656041
174	0xbdca7e09	-0.098873205
175	0x3e2f982e	0.17147896
176	0xbd8266eb	-0.06367286
177	0x3c2532da	0.010082925
178	0x3d9ad35d	0.075598456
179	0xbdf260cd	-0.118348695
180	0x3e35a08f	0.1773703
181	0x3e0375ac	0.12837857
182	0xbd43f3fc	-0.047840104
183	0xbe07fcea	-0.13280073
184	0xbdb568da	-0.088578895
185	0x3e409a82	0.1880894
186	0x3c1d03e9	0.009583452
187	0x3de529fc	0.111896485
188	0xbd62bfbf	-0.055358645
189	0x3e127dc6	0.14305791
190	0xbdc1e09a	-0.094666675
191	0xbd8acfe5	-0.06777934
192	0x3e2e2e98	0.17009962
193	0xbd13cebd	-0.036085833
194	0x3e06a7c7	0.1314994
195	0x3cb934cb	0.022608181
196	0x3d588c15	0.052867968
197	0x3d946f98	0.07247847
198	0x3e117d0f	0.14207862
199	0xbd9001e8	-0.070316136
200	0xbdf8673d	-0.12129066
201	0x3d2cb20b	0.042161983
202	0xbe07cb09	-0.13261046
203	0x3e05774c	0.1303379
204	0x3d6eb719	0.058280084
205	0xbdf1f25f	-0.11813807
206	0x3e18bd63	0.14915995
207	0xbe1c18ca	-0.15243831
208	0xbe00a6b1	-0.12563588
209	0xbdebfb59	-0.1152255
210	0x3e12a4a9	0.14320625
211	0xbd2839fb	-0.04107092
212	0xbac3dce7	-0.0014943153
213	0xbb755ced	-0.0037439421
214	0x3d7173ab	0.0589482
215	0x3e2b71a8	0.16742575
216	0xbd80581d	-0.06266806
217	0xba0b841f	-0.0005322117
218	0x3dacae7b	0.08431717
219	0xbe06eb62	-0.13175729
220	0x3e2f5462	0.17122033
221	0x3e139710	0.14413095
222	0xbd752cdd	-0.059857238
223	0xbda02e9b	-0.07821389
224	0x3dc23f87	0.09484773
225	0x3e0416e6	0.1289936
226	0x39e3e6a9	0.0004346867
227	0xbe1d258d	-0.15346356
228	0x3dd9d53e	0.10636376
229	0x3c13ceec	0.009021502
230	0x3daa014a	0.08301027
231	0xbe13aaf5	-0.14420684
232	0xbd107770	-0.035270154
233	0x3e05b5f7	0.13057695
234	0xbe0c3970	-0.13693786
235	0x3df5908c	0.11990461
236	0xbcdf746a	-0.02727719
237	0x3d3370b3	0.04380865
238	0x3e0c0217	0.13672672
239	0xbe401a40	-0.18760014
240	0x3db5df25	0.08880452
241	0x3e40f9e9	0.18845333
242	0xbe2c1fcc	-0.16809005
243	0x3c0c1b42	0.008551421
244	0xbc66b928	-0.014082231
245	0xbe2e7668	-0.17037356
246	0xbdf523dd	-0.11969731
247	0xbcb6460a	-0.022250194
248	0xbe3cc342	-0.1843386
249	0x3c0273a4	0.007962141
250	0x3dc8484f	0.09779417
251	0xbe57abad	-0.21061583
252	0x3e0c8216	0.13721499
253	0x3d112761	0.035437945
254	0xbd9d9468	-0.07694322
255	0xbd86db8b	-0.06584843

StatefulPartitionedCall/sequential_10/dense_21/BiasAdd/ReadVariableOp:0 f4 [124]
0	0xbd269364	-0.040667906
1	0xbc2397f4	-0.009984959
2	0xbd2decf9	-0.042462323
3	0x3c144598	0.009049796
4	0xbc328bc5	-0.010897581
5	0x3c863555	0.016382853
6	0x3ce4a720	0.027911723
7	0x3cfd5893	0.030926025
8	0x3c886c1a	0.01665311
9	0x3b9cac1e	0.00478126
10	0x3cba590a	0.022747535
11	0x3d621330	0.05519408
12	0x3a96e937	0.0011513595
13	0x3c82df02	0.015975479
14	0x3d1ec273	0.03875966
15	0x3d4ec15a	0.050477363
16	0xbd4e7fbf	-0.050414797
17	0xbc1a5732	-0.009420203
18	0x3ca6c45b	0.020357301
19	0xbc480e0c	-0.01221038
20	0xbc7a8faa	-0.015293041
21	0x3c8aaacb	0.016927144
22	0xbd41fbd8	-0.047359318
23	0x3bd527c5	0.006504985
24	0x3c0fbfd2	0.008773761
25	0x3d1117b1	0.035422985
26	0xbcaa3779	-0.020778405
27	0x3d072710	0.032996237
28	0xbcbde73e	-0.023181554
29	0x3d0c4b74	0.034251645
30	0xbc6e7a62	-0.0145555455
31	0xbcbcf231	-0.023064705
32	0xbd068a9e	-0.03284704
33	0x3c8214eb	0.015879115
34	0xbd199176	-0.037492238
35	0x3d728615	0.0592099
36	0xbc2b80cf	-0.010467722
37	0xbd064b5e	-0.03278672
38	0xbd0d373e	-0.03447651
39	0x3d2abd8e	0.04168468
40	0xbd15c28c	-0.036562487
41	0x3ba1ee72	0.004941755
42	0x3b8fa0da	0.0043831887
43	0xbc3f50e0	-0.011676997
44	0x3bc47838	0.0059957765
45	0xbd52f0e9	-0.05149928
46	0xbc929f65	-0.01789827
47	0x3c87c8aa	0.016575176
48	0xbc63c741	-0.013902486
49	0x3bc3c4a9	0.0059743715
50	0xbc6b127e	-0.014347671
51	0x3d80ce37	0.06289332
52	0xbb122bbb	-0.0022303897
53	0xbb9405bc	-0.004517285
54	0xbc0b961d	-0.0085196765
55	0x3d64e7cc	0.05588512
56	0xbc002df2	-0.007823454
57	0xbca047a5	-0.019565413
58	0xbcb8e08a	-0.022568006
59	0x3d2ab179	0.041673157
60	0xbc657da8	-0.01400701
61	0x3b8ea296	0.004352878
62	0xbca67b1a	-0.020322371
63	0x3c951ce1	0.018202247
64	0xbd26db6a	-0.040736593
65	0x3c6d6d0e	0.014491333
66	0x3cb5e23c	0.022202604
67	0x3cc2d22b	0.023781857
68	0x3bedc1fa	0.00725579
69	0x3c3d0342	0.011536421
70	0x3c32622a	0.010887662
71	0x3af95872	0.0019023551
72	0x3c3cdc5c	0.011527147
73	0xbd36a075	-0.044586617
74	0x3d138c9e	0.036022775
75	0x3c4a1e12	0.012336271
76	0x3bb261f9	0.005443808
77	0x3cb2edbd	0.021841878
78	0xbb5c48a1	-0.0033612626
79	0xbc26c0f6	-0.010177841
80	0xbc80cbb5	-0.015722135
81	0x3d09bedd	0.033629287
82	0xbcdb6d31	-0.026785465
83	0x3c1da5da	0.009622062
84	0x3c843d74	0.016142584
85	0xbcafec58	-0.021475002
86	0x3b4083eb	0.0029375504
87	0x3c1ae74f	0.009454562
88	0x3befbc51	0.0073161502
89	0x3a6db2fb	0.00090675027
90	0xbc384ef1	-0.01124929
91	0x3c9c2605	0.019061098
92	0x3c12a3d1	0.00895019
93	0xbcba2a7e	-0.02272534
94	0x3c04852d	0.008088392
95	0xbcd4b826	-0.025966715
96	0xbc16f30b	-0.009213219
97	0x3c6a7684	0.014310483
98	0x3a61aa19	0.00086084154
99	0x3c4dde42	0.012565197
100	0xbbcf7a35	-0.006331707
101	0xbd1b3727	-0.037894394
102	0x3cd08325	0.02545316
103	0xbc2a863c	-0.0104079805
104	0x3bf3421a	0.0074236514
105	0xbcea61de	-0.02861112
106	0xbca78aff	-0.02045202
107	0xbcfce8b2	-0.030872677
108	0xbbd17e7e	-0.006393253
109	0x3c3a2333	0.011360931
110	0xbcaa6112	-0.02079824
111	0xba865a1b	-0.0010250242
112	0x3c3c877e	0.011506913
113	0xbc9f5bd8	-0.019452974
114	0x3cb899b3	0.022534227
115	0xbcfdc8aa	-0.030979473
116	0xbc3b44a2	-0.011429938
117	0x3b9f7421	0.0048661386
118	0xba8dd8fb	-0.0010822112
119	0xbc90f79b	-0.017696192
120	0x3c95c010	0.01828006
121	0xbc5f48f0	-0.0136282295
122	0xbbeb1b30	-0.007174872
123	0x3c6aa2d4	0.014321048

StatefulPartitionedCall/sequential_10/dense_20/MatMul/ReadVariableOp:0 f4 [10, 32]
0	0xbe78f9b3	-0.24314003
1	0xbe14327d	-0.14472385
2	0xbe1f6c42	-0.15568641
3	0x3e74830b	0.23878114
4	0xbddcbabd	-0.10777805
5	0xbe69c545	-0.22829159
6	0x3e785ea3	0.24254851
7	0x3e4bdbd6	0.1990808
8	0xbdf6a515	-0.12043206
9	0xbd9d15d6	-0.076701805
10	0x3e7d366b	0.2472779
11	0x3e54939a	0.2075943
12	0x3ab6e76c	0.0013954467
13	0x3e3e5766	0.18588027
14	0xbe48bef3	-0.19604091
15	0xbe6b4b58	-0.2297796
16	0xbbed215c	-0.0072366428
17	0x3e9be5c3	0.30448732
18	0xbe9b7827	-0.30365106
19	0xbd9d7064	-0.076874524
20	0xbe584f62	-0.21124032
21	0x3e844741	0.25835612
22	0x3db57810	0.08860791
23	0xbdd29ab4	-0.102834135
24	0xbe2d8d07	-0.16948329
25	0x3e86f08f	0.26355407
26	0x3e166f53	0.14690904
27	0x3e920de6	0.2852623
28	0x3e080281	0.13282205
29	0xbc826338	-0.015916452
30	0xbe650935	-0.22366793
31	0xbe4c2a74	-0.1993807
32	0x3ea45688	0.32097268
33	0x3e61ca58	0.22049844
34	0xbd5ee1b7	-0.054414477
35	0x3e07d267	0.13263856
36	0x3e4c110b	0.19928376
37	0xbdcf5e53	-0.10125413
38	0xbe404cab	-0.18779247
39	0xbe64d239	-0.22345819
40	0x3de78a65	0.113056935
41	0xbea42d47	-0.32065794
42	0xbd93d4a4	-0.07218292
43	0xbdf59142	-0.11990596
44	0x3e8b8e6a	0.2725709
45	0xbe726067	-0.23669587
46	0xbe0b9b03	-0.13633351
47	0xbe455298	-0.19269788
48	0x3e889d34	0.26682436
49	0xbd500e3d	-0.05079483
50	0x3e6ed294	0.23322517
51	0xbe2d465d	-0.16921373
52	0xbe6861a5	-0.22693498
53	0xbca95091	-0.0206683
54	0xbea8be02	-0.32957464
55	0x3cae6707	0.021289362
56	0x3e1394e4	0.14412266
57	0x3eb28293	0.34865245
58	0x3e5fee7d	0.2186832
59	0x3e3130cf	0.17303775
60	0xbe2da9e1	-0.16959335
61	0xbd586b4c	-0.0528367
62	0xbe50b512	-0.20381573
63	0xbcd13e3b	-0.02554237
64	0x3e80ccce	0.25156254
65	0xbdbeb961	-0.09312702
66	0x3e9737b1	0.29534677
67	0x3d5541ef	0.052064832
68	0xbeaab8dd	-0.33344164
69	0xbe6ea07d	-0.23303409
70	0x3e42dcaa	0.19029489
71	0xbe0f559f	-0.13997506
72	0x3d6121c7	0.054963853
73	0x3e6fb6b2	0.23409536
74	0xbe3cdaee	-0.1844289
75	0x3d9c11f1	0.076206096
76	0xbcc0e8cc	-0.023548506
77	0x3e0e3b00	0.13889694
78	0xbd7ad777	-0.06124064
79	0xbe2c6e32	-0.16838911
80	0xbe5a9748	-0.21346772
81	0xbe3f842f	-0.18702768
82	0xbe51a3cf	-0.20472644
83	0xbe108715	-0.1411403
84	0x3bd42c36	0.006474997
85	0x3e311a43	0.17295174
86	0xbe9ee02d	-0.31030408
87	0x3e00f5df	0.12593792
88	0xbdf55a06	-0.11980061
89	0xbe83c352	-0.25734955
90	0xbd2a0675	-0.041510064
91	0x3e97041c	0.29495323
92	0x3c1f1e6b	0.009711842
93	0xbcbea39c	-0.023271374
94	0xbe4070b6	-0.18792996
95	0x3e59a119	0.2125286
96	0x3ea72fc1	0.3265362
97	0x3e4ca952	0.19986466
98	0x3e9cb1f5	0.3060452
99	0x3eab0d8f	0.33408782
100	0x3a4f5600	0.00079092383
101	0x3eaad6c3	0.33366975
102	0x3dedc6f0	0.1161021
103	0x3e8cddad	0.27512875
104	0x3e4fa986	0.20279512
105	0xbe662691	-0.2247565
106	0x3e435cea	0.19078413
107	0xbe843951	-0.2582498
108	0xbd92def4	-0.07171431
109	0x3e70d4ce	0.23518679
110	0x3e61eb0e	0.22062322
111	0xbe15c0dd	-0.14624353
112	0x3d92b518	0.07163447
113	0x3e8989cf	0.26862952
114	0xbe765ac6	-0.24058065
115	0x3ea0c52d	0.31400433
116	0x3cb115d0	0.021616846
117	0x3e5ea33a	0.21741953
118	0xbe11c940	-0.14236927
119	0x3dd1d974	0.10246554
120	0xbe91cd72	-0.28477055
121	0xbe79e31a	-0.24403039
122	0xbe2e22d4	-0.17005473
123	0x3e4eb5ca	0.20186535
124	0xbe861272	-0.26185948
125	0xbe976618	-0.2957008
126	0x3d91b788	0.07115084
127	0xbe85030e	-0.25978893
128	0x3eb57103	0.35437784
129	0xbdc5a0e8	-0.09649831
130	0x3c4a5a40	0.012350619
131	0x3c416c00	0.011805534
132	0xbe10ac38	-0.14128196
133	0xbe782f43	-0.24236779
134	0xbd160420	-0.036625028
135	0x3da8e1f0	0.08246219
136	0xbe88eb41	-0.26741984
137	0xbdbf3c90	-0.09337723
138	0x3d86f07c	0.065888375
139	0x3e778822	0.24173024
140	0xbea4c43b	-0.32180962
141	0x3e4a42de	0.1975207
142	0x3e83e1ff	0.2575836
143	0xbe9f9c9b	-0.31174168
144	0x3e8eaa6f	0.27864406
145	0x3e1f178a	0.15536323
146	0xbbff7080	-0.0077953935
147	0x3d519258	0.051164955
148	0xbe003ac8	-0.12522423
149	0xbe75eff9	-0.24017324
150	0xbe885314	-0.26625884
151	0xbeb74a36	-0.35798806
152	0x3c89e550	0.016832978
153	0xbeb7bc7c	-0.3588599
154	0x3d7af6c8	0.061270505
155	0xbde24d80	-0.11049938
156	0xbe023c52	-0.12718323
157	0xbced6790	-0.028980047
158	0x3e8627fd	0.26202384
159	0xbe159278	-0.14606655
160	0x3e88c669	0.26713875
161	0x3e76cb42	0.24100974
162	0xbeb5e963	-0.35529622
163	0xbbf50969	-0.0074779284
164	0xbdb92bcc	-0.09041557
165	0x3e614441	0.21998693
166	0x3e24659d	0.16054387
167	0xbeb9a59a	-0.36259156
168	0xbe0114e8	-0.12605631
169	0xbd359848	-0.04433468
170	0x3ceb2b27	0.0287071
171	0x3e4289cf	0.18997882
172	0x3ea73821	0.3266001
173	0xbd89519b	-0.06705018
174	0xbbffac6c	-0.0078025367
175	0xbeb862cc	-0.36012876
176	0x3ecacb43	0.396082
177	0x3e373c99	0.1789421
178	0x3e8e24d6	0.2776248
179	0x3e838be2	0.2569266
180	0xbe96814b	-0.29395518
181	0x3e8f799c	0.28022468
182	0xbe95cd06	-0.29257983
183	0xbeb3997e	-0.35078043
184	0xbe96c376	-0.29446
185	0xbe64f306	-0.22358331
186	0xbe8879a7	-0.26655313
187	0x3e0943b6	0.13404736
188	0x3e34bcac	0.17650098
189	0xbea835a7	-0.32853433
190	0x3e541d7a	0.2071437
191	0xbea2df0e	-0.31810802
192	0x3eae71a5	0.3407108
193	0xbe6342a1	-0.22193386
194	0xbda51a4c	-0.08061656
195	0xbd0e5548	-0.0347493
196	0x3b559180	0.0032587945
197	0xbe89ae7c	-0.26890934
198	0x3e3f91ce	0.18707964
199	0xbe6ac68a	-0.22927299
200	0x3e65f526	0.22456798
201	0xbeaf8a40	-0.34285164
202	0x3ae0ed00	0.0017160475
203	0xbe053700	-0.13009262
204	0x3e6bbc4e	0.23021051
205	0xbe12284f	-0.14273189
206	0x3e614e2a	0.22002473
207	0x3e67f262	0.22651055
208	0xbc9630d0	-0.018333822
209	0xbd4f73e0	-0.050647616
210	0x3e8ce009	0.27514675
211	0x3e12801e	0.14306685
212	0xbe0ec06a	-0.13940588
213	0x3d71c410	0.05902487
214	0xbe968d3a	-0.29404622
215	0x3e0c7366	0.13715896
216	0x3e59c886	0.212679
217	0x3eb69d6b	0.35666975
218	0x3db5a1cc	0.08868751
219	0xbe51223e	-0.20423219
220	0xbebeaa8e	-0.37239498
221	0x3eae828d	0.34083977
222	0xbeba71b8	-0.36414886
223	0xbe8d5c5c	-0.27609527
224	0x3d7d6c9c	0.061871156
225	0x3e938a0a	0.28816253
226	0xbe168d18	-0.1470226
227	0xbe2625ef	-0.16225408
228	0xbe6298da	-0.2212862
229	0xbed0b4de	-0.4076299
230	0x3e2d0948	0.16898072
231	0x3df6630a	0.12030609
232	0xbc45d7a6	-0.01207534
233	0x3e818e27	0.25303766
234	0x3e029869	0.12753452
235	0x3e68f904	0.22751242
236	0x3e87b6fd	0.26506796
237	0x3edf5e05	0.4362642
238	0x3db0d29a	0.08633919
239	0x3e7b3f64	0.245359
240	0x3e85e101	0.26148227
241	0xbd8c6fb0	-0.0685724
242	0x3df661a4	0.12030342
243	0x3e7ec9e3	0.24881701
244	0x3d5b4ce2	0.053540118
245	0x3eaf9952	0.34296662
246	0xbe4f0831	-0.20217969
247	0xbd0f914e	-0.035050683
248	0xbe4f4487	-0.20240985
249	0xbc79c5be	-0.015244899
250	0x3e573732	0.21017149
251	0xbcbf22f7	-0.023332102
252	0x3e61f05c	0.22064346
253	0x3d73ccce	0.05952149
254	0xbe81df92	-0.25365883
255	0xbe78c3a1	-0.24293377

StatefulPartitionedCall/sequential_10/dense_20/BiasAdd/ReadVariableOp:0 f4 [32]
0	0x3c8437f5	0.016139964
1	0xbcc825ca	-0.024432082
2	0xbd0ded07	-0.034649875
3	0xbd4c7964	-0.049920455
4	0xbcbc51f2	-0.022988293
5	0xbcfaeb00	-0.030629635
6	0xbc462c7f	-0.01209557
7	0xbd048681	-0.032354835
8	0xbd1b6f26	-0.037947796
9	0xbce1b4ea	-0.027552087
10	0xbd35ba87	-0.04436734
11	0x3d0ce23b	0.034395438
12	0xbce3db22	-0.027814452
13	0x3d6f4bfd	0.058422077
14	0x3d6781df	0.05652034
15	0xbd088303	-0.033328068
16	0x3d56f8e2	0.052483447
17	0xbd051cb6	-0.032498084
18	0xbd1169aa	-0.03550116
19	0xbccef50c	-0.025263332
20	0xbc0e6ed9	-0.00869342
21	0x3d67accb	0.056561273
22	0x3c0e7e2d	0.008697075
23	0xbd0001a3	-0.03125156
24	0xbd04ccf8	-0.032422036
25	0x3d2ac163	0.041688334
26	0xbca42fbd	-0.020042295
27	0xbc97bb03	-0.018521791
28	0xbd7db869	-0.061943445
29	0xbd29af47	-0.041426923
30	0xbc3750d3	-0.011188704
31	0xbd087d33	-0.033322524
